…
To enable the following instructions: AVX2 AVX512F AVX512_VNNI FMA, in other operations, rebuild TensorFlow with the appropriate compiler flags.
Downloading data from https://storage.googleapis.com/tensorflow/keras-applications/mobilenet_v2/mobilenet_v2_weights_tf_dim_ordering_tf_kernels_1.0_128_no_top.h5
9406464/9406464 ━━━━━━━━━━━━━━━━━━━━ 1s 0us/step
Model: "functional_1"
┏━━━━━━━━━━━━━━━━━━━━━━━━━━━━━━━┳━━━━━━━━━━━━━━━━━━━━━━━━━━━┳━━━━━━━━━━━━━━━━━┳━━━━━━━━━━━━━━━━━━━━━━━━━━━━┓
┃ Layer (type)                  ┃ Output Shape              ┃         Param # ┃ Connected to               ┃
┡━━━━━━━━━━━━━━━━━━━━━━━━━━━━━━━╇━━━━━━━━━━━━━━━━━━━━━━━━━━━╇━━━━━━━━━━━━━━━━━╇━━━━━━━━━━━━━━━━━━━━━━━━━━━━┩
│ input_layer (InputLayer)      │ (None, 128, 128, 3)       │               0 │ -                          │
├───────────────────────────────┼───────────────────────────┼─────────────────┼────────────────────────────┤
│ Conv1 (Conv2D)                │ (None, 64, 64, 32)        │             864 │ input_layer[0][0]          │
├───────────────────────────────┼───────────────────────────┼─────────────────┼────────────────────────────┤
│ bn_Conv1 (BatchNormalization) │ (None, 64, 64, 32)        │             128 │ Conv1[0][0]                │
├───────────────────────────────┼───────────────────────────┼─────────────────┼────────────────────────────┤
│ Conv1_relu (ReLU)             │ (None, 64, 64, 32)        │               0 │ bn_Conv1[0][0]             │
├───────────────────────────────┼───────────────────────────┼─────────────────┼────────────────────────────┤
│ expanded_conv_depthwise       │ (None, 64, 64, 32)        │             288 │ Conv1_relu[0][0]           │
│ (DepthwiseConv2D)             │                           │                 │                            │
├───────────────────────────────┼───────────────────────────┼─────────────────┼────────────────────────────┤
│ expanded_conv_depthwise_BN    │ (None, 64, 64, 32)        │             128 │ expanded_conv_depthwise[0… │
│ (BatchNormalization)          │                           │                 │                            │
├───────────────────────────────┼───────────────────────────┼─────────────────┼────────────────────────────┤
│ expanded_conv_depthwise_relu  │ (None, 64, 64, 32)        │               0 │ expanded_conv_depthwise_B… │
│ (ReLU)                        │                           │                 │                            │
├───────────────────────────────┼───────────────────────────┼─────────────────┼────────────────────────────┤
│ expanded_conv_project         │ (None, 64, 64, 16)        │             512 │ expanded_conv_depthwise_r… │
│ (Conv2D)                      │                           │                 │                            │
├───────────────────────────────┼───────────────────────────┼─────────────────┼────────────────────────────┤
│ expanded_conv_project_BN      │ (None, 64, 64, 16)        │              64 │ expanded_conv_project[0][… │
│ (BatchNormalization)          │                           │                 │                            │
├───────────────────────────────┼───────────────────────────┼─────────────────┼────────────────────────────┤
│ block_1_expand (Conv2D)       │ (None, 64, 64, 96)        │           1,536 │ expanded_conv_project_BN[… │
├───────────────────────────────┼───────────────────────────┼─────────────────┼────────────────────────────┤
│ block_1_expand_BN             │ (None, 64, 64, 96)        │             384 │ block_1_expand[0][0]       │
│ (BatchNormalization)          │                           │                 │                            │
├───────────────────────────────┼───────────────────────────┼─────────────────┼────────────────────────────┤
│ block_1_expand_relu (ReLU)    │ (None, 64, 64, 96)        │               0 │ block_1_expand_BN[0][0]    │
├───────────────────────────────┼───────────────────────────┼─────────────────┼────────────────────────────┤
│ block_1_pad (ZeroPadding2D)   │ (None, 65, 65, 96)        │               0 │ block_1_expand_relu[0][0]  │
├───────────────────────────────┼───────────────────────────┼─────────────────┼────────────────────────────┤
│ block_1_depthwise             │ (None, 32, 32, 96)        │             864 │ block_1_pad[0][0]          │
│ (DepthwiseConv2D)             │                           │                 │                            │
├───────────────────────────────┼───────────────────────────┼─────────────────┼────────────────────────────┤
│ block_1_depthwise_BN          │ (None, 32, 32, 96)        │             384 │ block_1_depthwise[0][0]    │
│ (BatchNormalization)          │                           │                 │                            │
├───────────────────────────────┼───────────────────────────┼─────────────────┼────────────────────────────┤
│ block_1_depthwise_relu (ReLU) │ (None, 32, 32, 96)        │               0 │ block_1_depthwise_BN[0][0] │
├───────────────────────────────┼───────────────────────────┼─────────────────┼────────────────────────────┤
│ block_1_project (Conv2D)      │ (None, 32, 32, 24)        │           2,304 │ block_1_depthwise_relu[0]… │
├───────────────────────────────┼───────────────────────────┼─────────────────┼────────────────────────────┤
│ block_1_project_BN            │ (None, 32, 32, 24)        │              96 │ block_1_project[0][0]      │
│ (BatchNormalization)          │                           │                 │                            │
├───────────────────────────────┼───────────────────────────┼─────────────────┼────────────────────────────┤
│ block_2_expand (Conv2D)       │ (None, 32, 32, 144)       │           3,456 │ block_1_project_BN[0][0]   │
├───────────────────────────────┼───────────────────────────┼─────────────────┼────────────────────────────┤
│ block_2_expand_BN             │ (None, 32, 32, 144)       │             576 │ block_2_expand[0][0]       │
│ (BatchNormalization)          │                           │                 │                            │
├───────────────────────────────┼───────────────────────────┼─────────────────┼────────────────────────────┤
│ block_2_expand_relu (ReLU)    │ (None, 32, 32, 144)       │               0 │ block_2_expand_BN[0][0]    │
├───────────────────────────────┼───────────────────────────┼─────────────────┼────────────────────────────┤
│ block_2_depthwise             │ (None, 32, 32, 144)       │           1,296 │ block_2_expand_relu[0][0]  │
│ (DepthwiseConv2D)             │                           │                 │                            │
├───────────────────────────────┼───────────────────────────┼─────────────────┼────────────────────────────┤
│ block_2_depthwise_BN          │ (None, 32, 32, 144)       │             576 │ block_2_depthwise[0][0]    │
│ (BatchNormalization)          │                           │                 │                            │
├───────────────────────────────┼───────────────────────────┼─────────────────┼────────────────────────────┤
│ block_2_depthwise_relu (ReLU) │ (None, 32, 32, 144)       │               0 │ block_2_depthwise_BN[0][0] │
├───────────────────────────────┼───────────────────────────┼─────────────────┼────────────────────────────┤
│ block_2_project (Conv2D)      │ (None, 32, 32, 24)        │           3,456 │ block_2_depthwise_relu[0]… │
├───────────────────────────────┼───────────────────────────┼─────────────────┼────────────────────────────┤
│ block_2_project_BN            │ (None, 32, 32, 24)        │              96 │ block_2_project[0][0]      │
│ (BatchNormalization)          │                           │                 │                            │
├───────────────────────────────┼───────────────────────────┼─────────────────┼────────────────────────────┤
│ block_2_add (Add)             │ (None, 32, 32, 24)        │               0 │ block_1_project_BN[0][0],  │
│                               │                           │                 │ block_2_project_BN[0][0]   │
├───────────────────────────────┼───────────────────────────┼─────────────────┼────────────────────────────┤
│ block_3_expand (Conv2D)       │ (None, 32, 32, 144)       │           3,456 │ block_2_add[0][0]          │
├───────────────────────────────┼───────────────────────────┼─────────────────┼────────────────────────────┤
│ block_3_expand_BN             │ (None, 32, 32, 144)       │             576 │ block_3_expand[0][0]       │
│ (BatchNormalization)          │                           │                 │                            │
├───────────────────────────────┼───────────────────────────┼─────────────────┼────────────────────────────┤
│ block_3_expand_relu (ReLU)    │ (None, 32, 32, 144)       │               0 │ block_3_expand_BN[0][0]    │
├───────────────────────────────┼───────────────────────────┼─────────────────┼────────────────────────────┤
│ block_3_pad (ZeroPadding2D)   │ (None, 33, 33, 144)       │               0 │ block_3_expand_relu[0][0]  │
├───────────────────────────────┼───────────────────────────┼─────────────────┼────────────────────────────┤
│ block_3_depthwise             │ (None, 16, 16, 144)       │           1,296 │ block_3_pad[0][0]          │
│ (DepthwiseConv2D)             │                           │                 │                            │
├───────────────────────────────┼───────────────────────────┼─────────────────┼────────────────────────────┤
│ block_3_depthwise_BN          │ (None, 16, 16, 144)       │             576 │ block_3_depthwise[0][0]    │
│ (BatchNormalization)          │                           │                 │                            │
├───────────────────────────────┼───────────────────────────┼─────────────────┼────────────────────────────┤
│ block_3_depthwise_relu (ReLU) │ (None, 16, 16, 144)       │               0 │ block_3_depthwise_BN[0][0] │
├───────────────────────────────┼───────────────────────────┼─────────────────┼────────────────────────────┤
│ block_3_project (Conv2D)      │ (None, 16, 16, 32)        │           4,608 │ block_3_depthwise_relu[0]… │
├───────────────────────────────┼───────────────────────────┼─────────────────┼────────────────────────────┤
│ block_3_project_BN            │ (None, 16, 16, 32)        │             128 │ block_3_project[0][0]      │
│ (BatchNormalization)          │                           │                 │                            │
├───────────────────────────────┼───────────────────────────┼─────────────────┼────────────────────────────┤
│ block_4_expand (Conv2D)       │ (None, 16, 16, 192)       │           6,144 │ block_3_project_BN[0][0]   │
├───────────────────────────────┼───────────────────────────┼─────────────────┼────────────────────────────┤
│ block_4_expand_BN             │ (None, 16, 16, 192)       │             768 │ block_4_expand[0][0]       │
│ (BatchNormalization)          │                           │                 │                            │
├───────────────────────────────┼───────────────────────────┼─────────────────┼────────────────────────────┤
│ block_4_expand_relu (ReLU)    │ (None, 16, 16, 192)       │               0 │ block_4_expand_BN[0][0]    │
├───────────────────────────────┼───────────────────────────┼─────────────────┼────────────────────────────┤
│ block_4_depthwise             │ (None, 16, 16, 192)       │           1,728 │ block_4_expand_relu[0][0]  │
│ (DepthwiseConv2D)             │                           │                 │                            │
├───────────────────────────────┼───────────────────────────┼─────────────────┼────────────────────────────┤
│ block_4_depthwise_BN          │ (None, 16, 16, 192)       │             768 │ block_4_depthwise[0][0]    │
│ (BatchNormalization)          │                           │                 │                            │
├───────────────────────────────┼───────────────────────────┼─────────────────┼────────────────────────────┤
│ block_4_depthwise_relu (ReLU) │ (None, 16, 16, 192)       │               0 │ block_4_depthwise_BN[0][0] │
├───────────────────────────────┼───────────────────────────┼─────────────────┼────────────────────────────┤
│ block_4_project (Conv2D)      │ (None, 16, 16, 32)        │           6,144 │ block_4_depthwise_relu[0]… │
├───────────────────────────────┼───────────────────────────┼─────────────────┼────────────────────────────┤
│ block_4_project_BN            │ (None, 16, 16, 32)        │             128 │ block_4_project[0][0]      │
│ (BatchNormalization)          │                           │                 │                            │
├───────────────────────────────┼───────────────────────────┼─────────────────┼────────────────────────────┤
│ block_4_add (Add)             │ (None, 16, 16, 32)        │               0 │ block_3_project_BN[0][0],  │
│                               │                           │                 │ block_4_project_BN[0][0]   │
├───────────────────────────────┼───────────────────────────┼─────────────────┼────────────────────────────┤
│ block_5_expand (Conv2D)       │ (None, 16, 16, 192)       │           6,144 │ block_4_add[0][0]          │
├───────────────────────────────┼───────────────────────────┼─────────────────┼────────────────────────────┤
│ block_5_expand_BN             │ (None, 16, 16, 192)       │             768 │ block_5_expand[0][0]       │
│ (BatchNormalization)          │                           │                 │                            │
├───────────────────────────────┼───────────────────────────┼─────────────────┼────────────────────────────┤
│ block_5_expand_relu (ReLU)    │ (None, 16, 16, 192)       │               0 │ block_5_expand_BN[0][0]    │
├───────────────────────────────┼───────────────────────────┼─────────────────┼────────────────────────────┤
│ block_5_depthwise             │ (None, 16, 16, 192)       │           1,728 │ block_5_expand_relu[0][0]  │
│ (DepthwiseConv2D)             │                           │                 │                            │
├───────────────────────────────┼───────────────────────────┼─────────────────┼────────────────────────────┤
│ block_5_depthwise_BN          │ (None, 16, 16, 192)       │             768 │ block_5_depthwise[0][0]    │
│ (BatchNormalization)          │                           │                 │                            │
├───────────────────────────────┼───────────────────────────┼─────────────────┼────────────────────────────┤
│ block_5_depthwise_relu (ReLU) │ (None, 16, 16, 192)       │               0 │ block_5_depthwise_BN[0][0] │
├───────────────────────────────┼───────────────────────────┼─────────────────┼────────────────────────────┤
│ block_5_project (Conv2D)      │ (None, 16, 16, 32)        │           6,144 │ block_5_depthwise_relu[0]… │
├───────────────────────────────┼───────────────────────────┼─────────────────┼────────────────────────────┤
│ block_5_project_BN            │ (None, 16, 16, 32)        │             128 │ block_5_project[0][0]      │
│ (BatchNormalization)          │                           │                 │                            │
├───────────────────────────────┼───────────────────────────┼─────────────────┼────────────────────────────┤
│ block_5_add (Add)             │ (None, 16, 16, 32)        │               0 │ block_4_add[0][0],         │
│                               │                           │                 │ block_5_project_BN[0][0]   │
├───────────────────────────────┼───────────────────────────┼─────────────────┼────────────────────────────┤
│ block_6_expand (Conv2D)       │ (None, 16, 16, 192)       │           6,144 │ block_5_add[0][0]          │
├───────────────────────────────┼───────────────────────────┼─────────────────┼────────────────────────────┤
│ block_6_expand_BN             │ (None, 16, 16, 192)       │             768 │ block_6_expand[0][0]       │
│ (BatchNormalization)          │                           │                 │                            │
├───────────────────────────────┼───────────────────────────┼─────────────────┼────────────────────────────┤
│ block_6_expand_relu (ReLU)    │ (None, 16, 16, 192)       │               0 │ block_6_expand_BN[0][0]    │
├───────────────────────────────┼───────────────────────────┼─────────────────┼────────────────────────────┤
│ block_6_pad (ZeroPadding2D)   │ (None, 17, 17, 192)       │               0 │ block_6_expand_relu[0][0]  │
├───────────────────────────────┼───────────────────────────┼─────────────────┼────────────────────────────┤
│ block_6_depthwise             │ (None, 8, 8, 192)         │           1,728 │ block_6_pad[0][0]          │
│ (DepthwiseConv2D)             │                           │                 │                            │
├───────────────────────────────┼───────────────────────────┼─────────────────┼────────────────────────────┤
│ block_6_depthwise_BN          │ (None, 8, 8, 192)         │             768 │ block_6_depthwise[0][0]    │
│ (BatchNormalization)          │                           │                 │                            │
├───────────────────────────────┼───────────────────────────┼─────────────────┼────────────────────────────┤
│ block_6_depthwise_relu (ReLU) │ (None, 8, 8, 192)         │               0 │ block_6_depthwise_BN[0][0] │
├───────────────────────────────┼───────────────────────────┼─────────────────┼────────────────────────────┤
│ block_6_project (Conv2D)      │ (None, 8, 8, 64)          │          12,288 │ block_6_depthwise_relu[0]… │
├───────────────────────────────┼───────────────────────────┼─────────────────┼────────────────────────────┤
│ block_6_project_BN            │ (None, 8, 8, 64)          │             256 │ block_6_project[0][0]      │
│ (BatchNormalization)          │                           │                 │                            │
├───────────────────────────────┼───────────────────────────┼─────────────────┼────────────────────────────┤
│ block_7_expand (Conv2D)       │ (None, 8, 8, 384)         │          24,576 │ block_6_project_BN[0][0]   │
├───────────────────────────────┼───────────────────────────┼─────────────────┼────────────────────────────┤
│ block_7_expand_BN             │ (None, 8, 8, 384)         │           1,536 │ block_7_expand[0][0]       │
│ (BatchNormalization)          │                           │                 │                            │
├───────────────────────────────┼───────────────────────────┼─────────────────┼────────────────────────────┤
│ block_7_expand_relu (ReLU)    │ (None, 8, 8, 384)         │               0 │ block_7_expand_BN[0][0]    │
├───────────────────────────────┼───────────────────────────┼─────────────────┼────────────────────────────┤
│ block_7_depthwise             │ (None, 8, 8, 384)         │           3,456 │ block_7_expand_relu[0][0]  │
│ (DepthwiseConv2D)             │                           │                 │                            │
├───────────────────────────────┼───────────────────────────┼─────────────────┼────────────────────────────┤
│ block_7_depthwise_BN          │ (None, 8, 8, 384)         │           1,536 │ block_7_depthwise[0][0]    │
│ (BatchNormalization)          │                           │                 │                            │
├───────────────────────────────┼───────────────────────────┼─────────────────┼────────────────────────────┤
│ block_7_depthwise_relu (ReLU) │ (None, 8, 8, 384)         │               0 │ block_7_depthwise_BN[0][0] │
├───────────────────────────────┼───────────────────────────┼─────────────────┼────────────────────────────┤
│ block_7_project (Conv2D)      │ (None, 8, 8, 64)          │          24,576 │ block_7_depthwise_relu[0]… │
├───────────────────────────────┼───────────────────────────┼─────────────────┼────────────────────────────┤
│ block_7_project_BN            │ (None, 8, 8, 64)          │             256 │ block_7_project[0][0]      │
│ (BatchNormalization)          │                           │                 │                            │
├───────────────────────────────┼───────────────────────────┼─────────────────┼────────────────────────────┤
│ block_7_add (Add)             │ (None, 8, 8, 64)          │               0 │ block_6_project_BN[0][0],  │
│                               │                           │                 │ block_7_project_BN[0][0]   │
├───────────────────────────────┼───────────────────────────┼─────────────────┼────────────────────────────┤
│ block_8_expand (Conv2D)       │ (None, 8, 8, 384)         │          24,576 │ block_7_add[0][0]          │
├───────────────────────────────┼───────────────────────────┼─────────────────┼────────────────────────────┤
│ block_8_expand_BN             │ (None, 8, 8, 384)         │           1,536 │ block_8_expand[0][0]       │
│ (BatchNormalization)          │                           │                 │                            │
├───────────────────────────────┼───────────────────────────┼─────────────────┼────────────────────────────┤
│ block_8_expand_relu (ReLU)    │ (None, 8, 8, 384)         │               0 │ block_8_expand_BN[0][0]    │
├───────────────────────────────┼───────────────────────────┼─────────────────┼────────────────────────────┤
│ block_8_depthwise             │ (None, 8, 8, 384)         │           3,456 │ block_8_expand_relu[0][0]  │
│ (DepthwiseConv2D)             │                           │                 │                            │
├───────────────────────────────┼───────────────────────────┼─────────────────┼────────────────────────────┤
│ block_8_depthwise_BN          │ (None, 8, 8, 384)         │           1,536 │ block_8_depthwise[0][0]    │
│ (BatchNormalization)          │                           │                 │                            │
├───────────────────────────────┼───────────────────────────┼─────────────────┼────────────────────────────┤
│ block_8_depthwise_relu (ReLU) │ (None, 8, 8, 384)         │               0 │ block_8_depthwise_BN[0][0] │
├───────────────────────────────┼───────────────────────────┼─────────────────┼────────────────────────────┤
│ block_8_project (Conv2D)      │ (None, 8, 8, 64)          │          24,576 │ block_8_depthwise_relu[0]… │
├───────────────────────────────┼───────────────────────────┼─────────────────┼────────────────────────────┤
│ block_8_project_BN            │ (None, 8, 8, 64)          │             256 │ block_8_project[0][0]      │
│ (BatchNormalization)          │                           │                 │                            │
├───────────────────────────────┼───────────────────────────┼─────────────────┼────────────────────────────┤
│ block_8_add (Add)             │ (None, 8, 8, 64)          │               0 │ block_7_add[0][0],         │
│                               │                           │                 │ block_8_project_BN[0][0]   │
├───────────────────────────────┼───────────────────────────┼─────────────────┼────────────────────────────┤
│ block_9_expand (Conv2D)       │ (None, 8, 8, 384)         │          24,576 │ block_8_add[0][0]          │
├───────────────────────────────┼───────────────────────────┼─────────────────┼────────────────────────────┤
│ block_9_expand_BN             │ (None, 8, 8, 384)         │           1,536 │ block_9_expand[0][0]       │
│ (BatchNormalization)          │                           │                 │                            │
├───────────────────────────────┼───────────────────────────┼─────────────────┼────────────────────────────┤
│ block_9_expand_relu (ReLU)    │ (None, 8, 8, 384)         │               0 │ block_9_expand_BN[0][0]    │
├───────────────────────────────┼───────────────────────────┼─────────────────┼────────────────────────────┤
│ block_9_depthwise             │ (None, 8, 8, 384)         │           3,456 │ block_9_expand_relu[0][0]  │
│ (DepthwiseConv2D)             │                           │                 │                            │
├───────────────────────────────┼───────────────────────────┼─────────────────┼────────────────────────────┤
│ block_9_depthwise_BN          │ (None, 8, 8, 384)         │           1,536 │ block_9_depthwise[0][0]    │
│ (BatchNormalization)          │                           │                 │                            │
├───────────────────────────────┼───────────────────────────┼─────────────────┼────────────────────────────┤
│ block_9_depthwise_relu (ReLU) │ (None, 8, 8, 384)         │               0 │ block_9_depthwise_BN[0][0] │
├───────────────────────────────┼───────────────────────────┼─────────────────┼────────────────────────────┤
│ block_9_project (Conv2D)      │ (None, 8, 8, 64)          │          24,576 │ block_9_depthwise_relu[0]… │
├───────────────────────────────┼───────────────────────────┼─────────────────┼────────────────────────────┤
│ block_9_project_BN            │ (None, 8, 8, 64)          │             256 │ block_9_project[0][0]      │
│ (BatchNormalization)          │                           │                 │                            │
├───────────────────────────────┼───────────────────────────┼─────────────────┼────────────────────────────┤
│ block_9_add (Add)             │ (None, 8, 8, 64)          │               0 │ block_8_add[0][0],         │
│                               │                           │                 │ block_9_project_BN[0][0]   │
├───────────────────────────────┼───────────────────────────┼─────────────────┼────────────────────────────┤
│ block_10_expand (Conv2D)      │ (None, 8, 8, 384)         │          24,576 │ block_9_add[0][0]          │
├───────────────────────────────┼───────────────────────────┼─────────────────┼────────────────────────────┤
│ block_10_expand_BN            │ (None, 8, 8, 384)         │           1,536 │ block_10_expand[0][0]      │
│ (BatchNormalization)          │                           │                 │                            │
├───────────────────────────────┼───────────────────────────┼─────────────────┼────────────────────────────┤
│ block_10_expand_relu (ReLU)   │ (None, 8, 8, 384)         │               0 │ block_10_expand_BN[0][0]   │
├───────────────────────────────┼───────────────────────────┼─────────────────┼────────────────────────────┤
│ block_10_depthwise            │ (None, 8, 8, 384)         │           3,456 │ block_10_expand_relu[0][0] │
│ (DepthwiseConv2D)             │                           │                 │                            │
├───────────────────────────────┼───────────────────────────┼─────────────────┼────────────────────────────┤
│ block_10_depthwise_BN         │ (None, 8, 8, 384)         │           1,536 │ block_10_depthwise[0][0]   │
│ (BatchNormalization)          │                           │                 │                            │
├───────────────────────────────┼───────────────────────────┼─────────────────┼────────────────────────────┤
│ block_10_depthwise_relu       │ (None, 8, 8, 384)         │               0 │ block_10_depthwise_BN[0][… │
│ (ReLU)                        │                           │                 │                            │
├───────────────────────────────┼───────────────────────────┼─────────────────┼────────────────────────────┤
│ block_10_project (Conv2D)     │ (None, 8, 8, 96)          │          36,864 │ block_10_depthwise_relu[0… │
├───────────────────────────────┼───────────────────────────┼─────────────────┼────────────────────────────┤
│ block_10_project_BN           │ (None, 8, 8, 96)          │             384 │ block_10_project[0][0]     │
│ (BatchNormalization)          │                           │                 │                            │
├───────────────────────────────┼───────────────────────────┼─────────────────┼────────────────────────────┤
│ block_11_expand (Conv2D)      │ (None, 8, 8, 576)         │          55,296 │ block_10_project_BN[0][0]  │
├───────────────────────────────┼───────────────────────────┼─────────────────┼────────────────────────────┤
│ block_11_expand_BN            │ (None, 8, 8, 576)         │           2,304 │ block_11_expand[0][0]      │
│ (BatchNormalization)          │                           │                 │                            │
├───────────────────────────────┼───────────────────────────┼─────────────────┼────────────────────────────┤
│ block_11_expand_relu (ReLU)   │ (None, 8, 8, 576)         │               0 │ block_11_expand_BN[0][0]   │
├───────────────────────────────┼───────────────────────────┼─────────────────┼────────────────────────────┤
│ block_11_depthwise            │ (None, 8, 8, 576)         │           5,184 │ block_11_expand_relu[0][0] │
│ (DepthwiseConv2D)             │                           │                 │                            │
├───────────────────────────────┼───────────────────────────┼─────────────────┼────────────────────────────┤
│ block_11_depthwise_BN         │ (None, 8, 8, 576)         │           2,304 │ block_11_depthwise[0][0]   │
│ (BatchNormalization)          │                           │                 │                            │
├───────────────────────────────┼───────────────────────────┼─────────────────┼────────────────────────────┤
│ block_11_depthwise_relu       │ (None, 8, 8, 576)         │               0 │ block_11_depthwise_BN[0][… │
│ (ReLU)                        │                           │                 │                            │
├───────────────────────────────┼───────────────────────────┼─────────────────┼────────────────────────────┤
│ block_11_project (Conv2D)     │ (None, 8, 8, 96)          │          55,296 │ block_11_depthwise_relu[0… │
├───────────────────────────────┼───────────────────────────┼─────────────────┼────────────────────────────┤
│ block_11_project_BN           │ (None, 8, 8, 96)          │             384 │ block_11_project[0][0]     │
│ (BatchNormalization)          │                           │                 │                            │
├───────────────────────────────┼───────────────────────────┼─────────────────┼────────────────────────────┤
│ block_11_add (Add)            │ (None, 8, 8, 96)          │               0 │ block_10_project_BN[0][0], │
│                               │                           │                 │ block_11_project_BN[0][0]  │
├───────────────────────────────┼───────────────────────────┼─────────────────┼────────────────────────────┤
│ block_12_expand (Conv2D)      │ (None, 8, 8, 576)         │          55,296 │ block_11_add[0][0]         │
├───────────────────────────────┼───────────────────────────┼─────────────────┼────────────────────────────┤
│ block_12_expand_BN            │ (None, 8, 8, 576)         │           2,304 │ block_12_expand[0][0]      │
│ (BatchNormalization)          │                           │                 │                            │
├───────────────────────────────┼───────────────────────────┼─────────────────┼────────────────────────────┤
│ block_12_expand_relu (ReLU)   │ (None, 8, 8, 576)         │               0 │ block_12_expand_BN[0][0]   │
├───────────────────────────────┼───────────────────────────┼─────────────────┼────────────────────────────┤
│ block_12_depthwise            │ (None, 8, 8, 576)         │           5,184 │ block_12_expand_relu[0][0] │
│ (DepthwiseConv2D)             │                           │                 │                            │
├───────────────────────────────┼───────────────────────────┼─────────────────┼────────────────────────────┤
│ block_12_depthwise_BN         │ (None, 8, 8, 576)         │           2,304 │ block_12_depthwise[0][0]   │
│ (BatchNormalization)          │                           │                 │                            │
├───────────────────────────────┼───────────────────────────┼─────────────────┼────────────────────────────┤
│ block_12_depthwise_relu       │ (None, 8, 8, 576)         │               0 │ block_12_depthwise_BN[0][… │
│ (ReLU)                        │                           │                 │                            │
├───────────────────────────────┼───────────────────────────┼─────────────────┼────────────────────────────┤
│ block_12_project (Conv2D)     │ (None, 8, 8, 96)          │          55,296 │ block_12_depthwise_relu[0… │
├───────────────────────────────┼───────────────────────────┼─────────────────┼────────────────────────────┤
│ block_12_project_BN           │ (None, 8, 8, 96)          │             384 │ block_12_project[0][0]     │
│ (BatchNormalization)          │                           │                 │                            │
├───────────────────────────────┼───────────────────────────┼─────────────────┼────────────────────────────┤
│ block_12_add (Add)            │ (None, 8, 8, 96)          │               0 │ block_11_add[0][0],        │
│                               │                           │                 │ block_12_project_BN[0][0]  │
├───────────────────────────────┼───────────────────────────┼─────────────────┼────────────────────────────┤
│ block_13_expand (Conv2D)      │ (None, 8, 8, 576)         │          55,296 │ block_12_add[0][0]         │
├───────────────────────────────┼───────────────────────────┼─────────────────┼────────────────────────────┤
│ block_13_expand_BN            │ (None, 8, 8, 576)         │           2,304 │ block_13_expand[0][0]      │
│ (BatchNormalization)          │                           │                 │                            │
├───────────────────────────────┼───────────────────────────┼─────────────────┼────────────────────────────┤
│ block_13_expand_relu (ReLU)   │ (None, 8, 8, 576)         │               0 │ block_13_expand_BN[0][0]   │
├───────────────────────────────┼───────────────────────────┼─────────────────┼────────────────────────────┤
│ block_13_pad (ZeroPadding2D)  │ (None, 9, 9, 576)         │               0 │ block_13_expand_relu[0][0] │
├───────────────────────────────┼───────────────────────────┼─────────────────┼────────────────────────────┤
│ block_13_depthwise            │ (None, 4, 4, 576)         │           5,184 │ block_13_pad[0][0]         │
│ (DepthwiseConv2D)             │                           │                 │                            │
├───────────────────────────────┼───────────────────────────┼─────────────────┼────────────────────────────┤
│ block_13_depthwise_BN         │ (None, 4, 4, 576)         │           2,304 │ block_13_depthwise[0][0]   │
│ (BatchNormalization)          │                           │                 │                            │
├───────────────────────────────┼───────────────────────────┼─────────────────┼────────────────────────────┤
│ block_13_depthwise_relu       │ (None, 4, 4, 576)         │               0 │ block_13_depthwise_BN[0][… │
│ (ReLU)                        │                           │                 │                            │
├───────────────────────────────┼───────────────────────────┼─────────────────┼────────────────────────────┤
│ block_13_project (Conv2D)     │ (None, 4, 4, 160)         │          92,160 │ block_13_depthwise_relu[0… │
├───────────────────────────────┼───────────────────────────┼─────────────────┼────────────────────────────┤
│ block_13_project_BN           │ (None, 4, 4, 160)         │             640 │ block_13_project[0][0]     │
│ (BatchNormalization)          │                           │                 │                            │
├───────────────────────────────┼───────────────────────────┼─────────────────┼────────────────────────────┤
│ block_14_expand (Conv2D)      │ (None, 4, 4, 960)         │         153,600 │ block_13_project_BN[0][0]  │
├───────────────────────────────┼───────────────────────────┼─────────────────┼────────────────────────────┤
│ block_14_expand_BN            │ (None, 4, 4, 960)         │           3,840 │ block_14_expand[0][0]      │
│ (BatchNormalization)          │                           │                 │                            │
├───────────────────────────────┼───────────────────────────┼─────────────────┼────────────────────────────┤
│ block_14_expand_relu (ReLU)   │ (None, 4, 4, 960)         │               0 │ block_14_expand_BN[0][0]   │
├───────────────────────────────┼───────────────────────────┼─────────────────┼────────────────────────────┤
│ block_14_depthwise            │ (None, 4, 4, 960)         │           8,640 │ block_14_expand_relu[0][0] │
│ (DepthwiseConv2D)             │                           │                 │                            │
├───────────────────────────────┼───────────────────────────┼─────────────────┼────────────────────────────┤
│ block_14_depthwise_BN         │ (None, 4, 4, 960)         │           3,840 │ block_14_depthwise[0][0]   │
│ (BatchNormalization)          │                           │                 │                            │
├───────────────────────────────┼───────────────────────────┼─────────────────┼────────────────────────────┤
│ block_14_depthwise_relu       │ (None, 4, 4, 960)         │               0 │ block_14_depthwise_BN[0][… │
│ (ReLU)                        │                           │                 │                            │
├───────────────────────────────┼───────────────────────────┼─────────────────┼────────────────────────────┤
│ block_14_project (Conv2D)     │ (None, 4, 4, 160)         │         153,600 │ block_14_depthwise_relu[0… │
├───────────────────────────────┼───────────────────────────┼─────────────────┼────────────────────────────┤
│ block_14_project_BN           │ (None, 4, 4, 160)         │             640 │ block_14_project[0][0]     │
│ (BatchNormalization)          │                           │                 │                            │
├───────────────────────────────┼───────────────────────────┼─────────────────┼────────────────────────────┤
│ block_14_add (Add)            │ (None, 4, 4, 160)         │               0 │ block_13_project_BN[0][0], │
│                               │                           │                 │ block_14_project_BN[0][0]  │
├───────────────────────────────┼───────────────────────────┼─────────────────┼────────────────────────────┤
│ block_15_expand (Conv2D)      │ (None, 4, 4, 960)         │         153,600 │ block_14_add[0][0]         │
├───────────────────────────────┼───────────────────────────┼─────────────────┼────────────────────────────┤
│ block_15_expand_BN            │ (None, 4, 4, 960)         │           3,840 │ block_15_expand[0][0]      │
│ (BatchNormalization)          │                           │                 │                            │
├───────────────────────────────┼───────────────────────────┼─────────────────┼────────────────────────────┤
│ block_15_expand_relu (ReLU)   │ (None, 4, 4, 960)         │               0 │ block_15_expand_BN[0][0]   │
├───────────────────────────────┼───────────────────────────┼─────────────────┼────────────────────────────┤
│ block_15_depthwise            │ (None, 4, 4, 960)         │           8,640 │ block_15_expand_relu[0][0] │
│ (DepthwiseConv2D)             │                           │                 │                            │
├───────────────────────────────┼───────────────────────────┼─────────────────┼────────────────────────────┤
│ block_15_depthwise_BN         │ (None, 4, 4, 960)         │           3,840 │ block_15_depthwise[0][0]   │
│ (BatchNormalization)          │                           │                 │                            │
├───────────────────────────────┼───────────────────────────┼─────────────────┼────────────────────────────┤
│ block_15_depthwise_relu       │ (None, 4, 4, 960)         │               0 │ block_15_depthwise_BN[0][… │
│ (ReLU)                        │                           │                 │                            │
├───────────────────────────────┼───────────────────────────┼─────────────────┼────────────────────────────┤
│ block_15_project (Conv2D)     │ (None, 4, 4, 160)         │         153,600 │ block_15_depthwise_relu[0… │
├───────────────────────────────┼───────────────────────────┼─────────────────┼────────────────────────────┤
│ block_15_project_BN           │ (None, 4, 4, 160)         │             640 │ block_15_project[0][0]     │
│ (BatchNormalization)          │                           │                 │                            │
├───────────────────────────────┼───────────────────────────┼─────────────────┼────────────────────────────┤
│ block_15_add (Add)            │ (None, 4, 4, 160)         │               0 │ block_14_add[0][0],        │
│                               │                           │                 │ block_15_project_BN[0][0]  │
├───────────────────────────────┼───────────────────────────┼─────────────────┼────────────────────────────┤
│ block_16_expand (Conv2D)      │ (None, 4, 4, 960)         │         153,600 │ block_15_add[0][0]         │
├───────────────────────────────┼───────────────────────────┼─────────────────┼────────────────────────────┤
│ block_16_expand_BN            │ (None, 4, 4, 960)         │           3,840 │ block_16_expand[0][0]      │
│ (BatchNormalization)          │                           │                 │                            │
├───────────────────────────────┼───────────────────────────┼─────────────────┼────────────────────────────┤
│ block_16_expand_relu (ReLU)   │ (None, 4, 4, 960)         │               0 │ block_16_expand_BN[0][0]   │
├───────────────────────────────┼───────────────────────────┼─────────────────┼────────────────────────────┤
│ block_16_depthwise            │ (None, 4, 4, 960)         │           8,640 │ block_16_expand_relu[0][0] │
│ (DepthwiseConv2D)             │                           │                 │                            │
├───────────────────────────────┼───────────────────────────┼─────────────────┼────────────────────────────┤
│ block_16_depthwise_BN         │ (None, 4, 4, 960)         │           3,840 │ block_16_depthwise[0][0]   │
│ (BatchNormalization)          │                           │                 │                            │
├───────────────────────────────┼───────────────────────────┼─────────────────┼────────────────────────────┤
│ block_16_depthwise_relu       │ (None, 4, 4, 960)         │               0 │ block_16_depthwise_BN[0][… │
│ (ReLU)                        │                           │                 │                            │
├───────────────────────────────┼───────────────────────────┼─────────────────┼────────────────────────────┤
│ block_16_project (Conv2D)     │ (None, 4, 4, 320)         │         307,200 │ block_16_depthwise_relu[0… │
├───────────────────────────────┼───────────────────────────┼─────────────────┼────────────────────────────┤
│ block_16_project_BN           │ (None, 4, 4, 320)         │           1,280 │ block_16_project[0][0]     │
│ (BatchNormalization)          │                           │                 │                            │
├───────────────────────────────┼───────────────────────────┼─────────────────┼────────────────────────────┤
│ Conv_1 (Conv2D)               │ (None, 4, 4, 1280)        │         409,600 │ block_16_project_BN[0][0]  │
├───────────────────────────────┼───────────────────────────┼─────────────────┼────────────────────────────┤
│ Conv_1_bn                     │ (None, 4, 4, 1280)        │           5,120 │ Conv_1[0][0]               │
│ (BatchNormalization)          │                           │                 │                            │
├───────────────────────────────┼───────────────────────────┼─────────────────┼────────────────────────────┤
│ out_relu (ReLU)               │ (None, 4, 4, 1280)        │               0 │ Conv_1_bn[0][0]            │
├───────────────────────────────┼───────────────────────────┼─────────────────┼────────────────────────────┤
│ global_average_pooling2d      │ (None, 1280)              │               0 │ out_relu[0][0]             │
│ (GlobalAveragePooling2D)      │                           │                 │                            │
├───────────────────────────────┼───────────────────────────┼─────────────────┼────────────────────────────┤
│ dense (Dense)                 │ (None, 5)                 │           6,405 │ global_average_pooling2d[… │
└───────────────────────────────┴───────────────────────────┴─────────────────┴────────────────────────────┘
 Total params: 2,264,389 (8.64 MB)
 Trainable params: 2,230,277 (8.51 MB)
 Non-trainable params: 34,112 (133.25 KB)
Found 6495 images belonging to 5 classes.
Found 1701 images belonging to 5 classes.
C:\Users\Benjamin\.pyenv\pyenv-win\versions\3.9.6\lib\site-packages\keras\src\trainers\data_adapters\py_dataset_adapter.py:120: UserWarning: Your `PyDataset` class should call `super().__init__(**kwargs)` in its constructor. `**kwargs` can include `workers`, `use_multiprocessing`, `max_queue_size`. Do not pass these ill be ignored.
…
To enable the following instructions: AVX2 AVX512F AVX512_VNNI FMA, in other operations, rebuild TensorFlow with the appropriate compiler flags.
Downloading data from https://storage.googleapis.com/tensorflow/keras-applications/inception_v3/inception_v3_weights_tf_dim_ordering_tf_kernels_notop.h5
87910968/87910968 ━━━━━━━━━━━━━━━━━━━━ 7s 0us/step  
Model: "functional_1"
┏━━━━━━━━━━━━━━━━━━━━━━━━━━━━━━━┳━━━━━━━━━━━━━━━━━━━━━━━━━━━┳━━━━━━━━━━━━━━━━━┳━━━━━━━━━━━━━━━━━━━━━━━━━━━━┓
┃ Layer (type)                  ┃ Output Shape              ┃         Param # ┃ Connected to               ┃
┡━━━━━━━━━━━━━━━━━━━━━━━━━━━━━━━╇━━━━━━━━━━━━━━━━━━━━━━━━━━━╇━━━━━━━━━━━━━━━━━╇━━━━━━━━━━━━━━━━━━━━━━━━━━━━┩
│ input_layer (InputLayer)      │ (None, 128, 128, 3)       │               0 │ -                          │
├───────────────────────────────┼───────────────────────────┼─────────────────┼────────────────────────────┤
│ conv2d (Conv2D)               │ (None, 63, 63, 32)        │             864 │ input_layer[0][0]          │
├───────────────────────────────┼───────────────────────────┼─────────────────┼────────────────────────────┤
│ batch_normalization           │ (None, 63, 63, 32)        │              96 │ conv2d[0][0]               │
│ (BatchNormalization)          │                           │                 │                            │
├───────────────────────────────┼───────────────────────────┼─────────────────┼────────────────────────────┤
│ activation (Activation)       │ (None, 63, 63, 32)        │               0 │ batch_normalization[0][0]  │
├───────────────────────────────┼───────────────────────────┼─────────────────┼────────────────────────────┤
│ conv2d_1 (Conv2D)             │ (None, 61, 61, 32)        │           9,216 │ activation[0][0]           │
├───────────────────────────────┼───────────────────────────┼─────────────────┼────────────────────────────┤
│ batch_normalization_1         │ (None, 61, 61, 32)        │              96 │ conv2d_1[0][0]             │
│ (BatchNormalization)          │                           │                 │                            │
├───────────────────────────────┼───────────────────────────┼─────────────────┼────────────────────────────┤
│ activation_1 (Activation)     │ (None, 61, 61, 32)        │               0 │ batch_normalization_1[0][… │
├───────────────────────────────┼───────────────────────────┼─────────────────┼────────────────────────────┤
│ conv2d_2 (Conv2D)             │ (None, 61, 61, 64)        │          18,432 │ activation_1[0][0]         │
├───────────────────────────────┼───────────────────────────┼─────────────────┼────────────────────────────┤
│ batch_normalization_2         │ (None, 61, 61, 64)        │             192 │ conv2d_2[0][0]             │
│ (BatchNormalization)          │                           │                 │                            │
├───────────────────────────────┼───────────────────────────┼─────────────────┼────────────────────────────┤
│ activation_2 (Activation)     │ (None, 61, 61, 64)        │               0 │ batch_normalization_2[0][… │
├───────────────────────────────┼───────────────────────────┼─────────────────┼────────────────────────────┤
│ max_pooling2d (MaxPooling2D)  │ (None, 30, 30, 64)        │               0 │ activation_2[0][0]         │
├───────────────────────────────┼───────────────────────────┼─────────────────┼────────────────────────────┤
│ conv2d_3 (Conv2D)             │ (None, 30, 30, 80)        │           5,120 │ max_pooling2d[0][0]        │
├───────────────────────────────┼───────────────────────────┼─────────────────┼────────────────────────────┤
│ batch_normalization_3         │ (None, 30, 30, 80)        │             240 │ conv2d_3[0][0]             │
│ (BatchNormalization)          │                           │                 │                            │
├───────────────────────────────┼───────────────────────────┼─────────────────┼────────────────────────────┤
│ activation_3 (Activation)     │ (None, 30, 30, 80)        │               0 │ batch_normalization_3[0][… │
├───────────────────────────────┼───────────────────────────┼─────────────────┼────────────────────────────┤
│ conv2d_4 (Conv2D)             │ (None, 28, 28, 192)       │         138,240 │ activation_3[0][0]         │
├───────────────────────────────┼───────────────────────────┼─────────────────┼────────────────────────────┤
│ batch_normalization_4         │ (None, 28, 28, 192)       │             576 │ conv2d_4[0][0]             │
│ (BatchNormalization)          │                           │                 │                            │
├───────────────────────────────┼───────────────────────────┼─────────────────┼────────────────────────────┤
│ activation_4 (Activation)     │ (None, 28, 28, 192)       │               0 │ batch_normalization_4[0][… │
├───────────────────────────────┼───────────────────────────┼─────────────────┼────────────────────────────┤
│ max_pooling2d_1               │ (None, 13, 13, 192)       │               0 │ activation_4[0][0]         │
│ (MaxPooling2D)                │                           │                 │                            │
├───────────────────────────────┼───────────────────────────┼─────────────────┼────────────────────────────┤
│ conv2d_8 (Conv2D)             │ (None, 13, 13, 64)        │          12,288 │ max_pooling2d_1[0][0]      │
├───────────────────────────────┼───────────────────────────┼─────────────────┼────────────────────────────┤
│ batch_normalization_8         │ (None, 13, 13, 64)        │             192 │ conv2d_8[0][0]             │
│ (BatchNormalization)          │                           │                 │                            │
├───────────────────────────────┼───────────────────────────┼─────────────────┼────────────────────────────┤
│ activation_8 (Activation)     │ (None, 13, 13, 64)        │               0 │ batch_normalization_8[0][… │
├───────────────────────────────┼───────────────────────────┼─────────────────┼────────────────────────────┤
│ conv2d_6 (Conv2D)             │ (None, 13, 13, 48)        │           9,216 │ max_pooling2d_1[0][0]      │
├───────────────────────────────┼───────────────────────────┼─────────────────┼────────────────────────────┤
│ conv2d_9 (Conv2D)             │ (None, 13, 13, 96)        │          55,296 │ activation_8[0][0]         │
├───────────────────────────────┼───────────────────────────┼─────────────────┼────────────────────────────┤
│ batch_normalization_6         │ (None, 13, 13, 48)        │             144 │ conv2d_6[0][0]             │
│ (BatchNormalization)          │                           │                 │                            │
├───────────────────────────────┼───────────────────────────┼─────────────────┼────────────────────────────┤
│ batch_normalization_9         │ (None, 13, 13, 96)        │             288 │ conv2d_9[0][0]             │
│ (BatchNormalization)          │                           │                 │                            │
├───────────────────────────────┼───────────────────────────┼─────────────────┼────────────────────────────┤
│ activation_6 (Activation)     │ (None, 13, 13, 48)        │               0 │ batch_normalization_6[0][… │
├───────────────────────────────┼───────────────────────────┼─────────────────┼────────────────────────────┤
│ activation_9 (Activation)     │ (None, 13, 13, 96)        │               0 │ batch_normalization_9[0][… │
├───────────────────────────────┼───────────────────────────┼─────────────────┼────────────────────────────┤
│ average_pooling2d             │ (None, 13, 13, 192)       │               0 │ max_pooling2d_1[0][0]      │
│ (AveragePooling2D)            │                           │                 │                            │
├───────────────────────────────┼───────────────────────────┼─────────────────┼────────────────────────────┤
│ conv2d_5 (Conv2D)             │ (None, 13, 13, 64)        │          12,288 │ max_pooling2d_1[0][0]      │
├───────────────────────────────┼───────────────────────────┼─────────────────┼────────────────────────────┤
│ conv2d_7 (Conv2D)             │ (None, 13, 13, 64)        │          76,800 │ activation_6[0][0]         │
├───────────────────────────────┼───────────────────────────┼─────────────────┼────────────────────────────┤
│ conv2d_10 (Conv2D)            │ (None, 13, 13, 96)        │          82,944 │ activation_9[0][0]         │
├───────────────────────────────┼───────────────────────────┼─────────────────┼────────────────────────────┤
│ conv2d_11 (Conv2D)            │ (None, 13, 13, 32)        │           6,144 │ average_pooling2d[0][0]    │
├───────────────────────────────┼───────────────────────────┼─────────────────┼────────────────────────────┤
│ batch_normalization_5         │ (None, 13, 13, 64)        │             192 │ conv2d_5[0][0]             │
│ (BatchNormalization)          │                           │                 │                            │
├───────────────────────────────┼───────────────────────────┼─────────────────┼────────────────────────────┤
│ batch_normalization_7         │ (None, 13, 13, 64)        │             192 │ conv2d_7[0][0]             │
│ (BatchNormalization)          │                           │                 │                            │
├───────────────────────────────┼───────────────────────────┼─────────────────┼────────────────────────────┤
│ batch_normalization_10        │ (None, 13, 13, 96)        │             288 │ conv2d_10[0][0]            │
│ (BatchNormalization)          │                           │                 │                            │
├───────────────────────────────┼───────────────────────────┼─────────────────┼────────────────────────────┤
│ batch_normalization_11        │ (None, 13, 13, 32)        │              96 │ conv2d_11[0][0]            │
│ (BatchNormalization)          │                           │                 │                            │
├───────────────────────────────┼───────────────────────────┼─────────────────┼────────────────────────────┤
│ activation_5 (Activation)     │ (None, 13, 13, 64)        │               0 │ batch_normalization_5[0][… │
├───────────────────────────────┼───────────────────────────┼─────────────────┼────────────────────────────┤
│ activation_7 (Activation)     │ (None, 13, 13, 64)        │               0 │ batch_normalization_7[0][… │
├───────────────────────────────┼───────────────────────────┼─────────────────┼────────────────────────────┤
│ activation_10 (Activation)    │ (None, 13, 13, 96)        │               0 │ batch_normalization_10[0]… │
├───────────────────────────────┼───────────────────────────┼─────────────────┼────────────────────────────┤
│ activation_11 (Activation)    │ (None, 13, 13, 32)        │               0 │ batch_normalization_11[0]… │
├───────────────────────────────┼───────────────────────────┼─────────────────┼────────────────────────────┤
│ mixed0 (Concatenate)          │ (None, 13, 13, 256)       │               0 │ activation_5[0][0],        │
│                               │                           │                 │ activation_7[0][0],        │
│                               │                           │                 │ activation_10[0][0],       │
│                               │                           │                 │ activation_11[0][0]        │
├───────────────────────────────┼───────────────────────────┼─────────────────┼────────────────────────────┤
│ conv2d_15 (Conv2D)            │ (None, 13, 13, 64)        │          16,384 │ mixed0[0][0]               │
├───────────────────────────────┼───────────────────────────┼─────────────────┼────────────────────────────┤
│ batch_normalization_15        │ (None, 13, 13, 64)        │             192 │ conv2d_15[0][0]            │
│ (BatchNormalization)          │                           │                 │                            │
├───────────────────────────────┼───────────────────────────┼─────────────────┼────────────────────────────┤
│ activation_15 (Activation)    │ (None, 13, 13, 64)        │               0 │ batch_normalization_15[0]… │
├───────────────────────────────┼───────────────────────────┼─────────────────┼────────────────────────────┤
│ conv2d_13 (Conv2D)            │ (None, 13, 13, 48)        │          12,288 │ mixed0[0][0]               │
├───────────────────────────────┼───────────────────────────┼─────────────────┼────────────────────────────┤
│ conv2d_16 (Conv2D)            │ (None, 13, 13, 96)        │          55,296 │ activation_15[0][0]        │
├───────────────────────────────┼───────────────────────────┼─────────────────┼────────────────────────────┤
│ batch_normalization_13        │ (None, 13, 13, 48)        │             144 │ conv2d_13[0][0]            │
│ (BatchNormalization)          │                           │                 │                            │
├───────────────────────────────┼───────────────────────────┼─────────────────┼────────────────────────────┤
│ batch_normalization_16        │ (None, 13, 13, 96)        │             288 │ conv2d_16[0][0]            │
│ (BatchNormalization)          │                           │                 │                            │
├───────────────────────────────┼───────────────────────────┼─────────────────┼────────────────────────────┤
│ activation_13 (Activation)    │ (None, 13, 13, 48)        │               0 │ batch_normalization_13[0]… │
├───────────────────────────────┼───────────────────────────┼─────────────────┼────────────────────────────┤
│ activation_16 (Activation)    │ (None, 13, 13, 96)        │               0 │ batch_normalization_16[0]… │
├───────────────────────────────┼───────────────────────────┼─────────────────┼────────────────────────────┤
│ average_pooling2d_1           │ (None, 13, 13, 256)       │               0 │ mixed0[0][0]               │
│ (AveragePooling2D)            │                           │                 │                            │
├───────────────────────────────┼───────────────────────────┼─────────────────┼────────────────────────────┤
│ conv2d_12 (Conv2D)            │ (None, 13, 13, 64)        │          16,384 │ mixed0[0][0]               │
├───────────────────────────────┼───────────────────────────┼─────────────────┼────────────────────────────┤
│ conv2d_14 (Conv2D)            │ (None, 13, 13, 64)        │          76,800 │ activation_13[0][0]        │
├───────────────────────────────┼───────────────────────────┼─────────────────┼────────────────────────────┤
│ conv2d_17 (Conv2D)            │ (None, 13, 13, 96)        │          82,944 │ activation_16[0][0]        │
├───────────────────────────────┼───────────────────────────┼─────────────────┼────────────────────────────┤
│ conv2d_18 (Conv2D)            │ (None, 13, 13, 64)        │          16,384 │ average_pooling2d_1[0][0]  │
├───────────────────────────────┼───────────────────────────┼─────────────────┼────────────────────────────┤
│ batch_normalization_12        │ (None, 13, 13, 64)        │             192 │ conv2d_12[0][0]            │
│ (BatchNormalization)          │                           │                 │                            │
├───────────────────────────────┼───────────────────────────┼─────────────────┼────────────────────────────┤
│ batch_normalization_14        │ (None, 13, 13, 64)        │             192 │ conv2d_14[0][0]            │
│ (BatchNormalization)          │                           │                 │                            │
├───────────────────────────────┼───────────────────────────┼─────────────────┼────────────────────────────┤
│ batch_normalization_17        │ (None, 13, 13, 96)        │             288 │ conv2d_17[0][0]            │
│ (BatchNormalization)          │                           │                 │                            │
├───────────────────────────────┼───────────────────────────┼─────────────────┼────────────────────────────┤
│ batch_normalization_18        │ (None, 13, 13, 64)        │             192 │ conv2d_18[0][0]            │
│ (BatchNormalization)          │                           │                 │                            │
├───────────────────────────────┼───────────────────────────┼─────────────────┼────────────────────────────┤
│ activation_12 (Activation)    │ (None, 13, 13, 64)        │               0 │ batch_normalization_12[0]… │
├───────────────────────────────┼───────────────────────────┼─────────────────┼────────────────────────────┤
│ activation_14 (Activation)    │ (None, 13, 13, 64)        │               0 │ batch_normalization_14[0]… │
├───────────────────────────────┼───────────────────────────┼─────────────────┼────────────────────────────┤
│ activation_17 (Activation)    │ (None, 13, 13, 96)        │               0 │ batch_normalization_17[0]… │
├───────────────────────────────┼───────────────────────────┼─────────────────┼────────────────────────────┤
│ activation_18 (Activation)    │ (None, 13, 13, 64)        │               0 │ batch_normalization_18[0]… │
├───────────────────────────────┼───────────────────────────┼─────────────────┼────────────────────────────┤
│ mixed1 (Concatenate)          │ (None, 13, 13, 288)       │               0 │ activation_12[0][0],       │
│                               │                           │                 │ activation_14[0][0],       │
│                               │                           │                 │ activation_17[0][0],       │
│                               │                           │                 │ activation_18[0][0]        │
├───────────────────────────────┼───────────────────────────┼─────────────────┼────────────────────────────┤
│ conv2d_22 (Conv2D)            │ (None, 13, 13, 64)        │          18,432 │ mixed1[0][0]               │
├───────────────────────────────┼───────────────────────────┼─────────────────┼────────────────────────────┤
│ batch_normalization_22        │ (None, 13, 13, 64)        │             192 │ conv2d_22[0][0]            │
│ (BatchNormalization)          │                           │                 │                            │
├───────────────────────────────┼───────────────────────────┼─────────────────┼────────────────────────────┤
│ activation_22 (Activation)    │ (None, 13, 13, 64)        │               0 │ batch_normalization_22[0]… │
├───────────────────────────────┼───────────────────────────┼─────────────────┼────────────────────────────┤
│ conv2d_20 (Conv2D)            │ (None, 13, 13, 48)        │          13,824 │ mixed1[0][0]               │
├───────────────────────────────┼───────────────────────────┼─────────────────┼────────────────────────────┤
│ conv2d_23 (Conv2D)            │ (None, 13, 13, 96)        │          55,296 │ activation_22[0][0]        │
├───────────────────────────────┼───────────────────────────┼─────────────────┼────────────────────────────┤
│ batch_normalization_20        │ (None, 13, 13, 48)        │             144 │ conv2d_20[0][0]            │
│ (BatchNormalization)          │                           │                 │                            │
├───────────────────────────────┼───────────────────────────┼─────────────────┼────────────────────────────┤
│ batch_normalization_23        │ (None, 13, 13, 96)        │             288 │ conv2d_23[0][0]            │
│ (BatchNormalization)          │                           │                 │                            │
├───────────────────────────────┼───────────────────────────┼─────────────────┼────────────────────────────┤
│ activation_20 (Activation)    │ (None, 13, 13, 48)        │               0 │ batch_normalization_20[0]… │
├───────────────────────────────┼───────────────────────────┼─────────────────┼────────────────────────────┤
│ activation_23 (Activation)    │ (None, 13, 13, 96)        │               0 │ batch_normalization_23[0]… │
├───────────────────────────────┼───────────────────────────┼─────────────────┼────────────────────────────┤
│ average_pooling2d_2           │ (None, 13, 13, 288)       │               0 │ mixed1[0][0]               │
│ (AveragePooling2D)            │                           │                 │                            │
├───────────────────────────────┼───────────────────────────┼─────────────────┼────────────────────────────┤
│ conv2d_19 (Conv2D)            │ (None, 13, 13, 64)        │          18,432 │ mixed1[0][0]               │
├───────────────────────────────┼───────────────────────────┼─────────────────┼────────────────────────────┤
│ conv2d_21 (Conv2D)            │ (None, 13, 13, 64)        │          76,800 │ activation_20[0][0]        │
├───────────────────────────────┼───────────────────────────┼─────────────────┼────────────────────────────┤
│ conv2d_24 (Conv2D)            │ (None, 13, 13, 96)        │          82,944 │ activation_23[0][0]        │
├───────────────────────────────┼───────────────────────────┼─────────────────┼────────────────────────────┤
│ conv2d_25 (Conv2D)            │ (None, 13, 13, 64)        │          18,432 │ average_pooling2d_2[0][0]  │
├───────────────────────────────┼───────────────────────────┼─────────────────┼────────────────────────────┤
│ batch_normalization_19        │ (None, 13, 13, 64)        │             192 │ conv2d_19[0][0]            │
│ (BatchNormalization)          │                           │                 │                            │
├───────────────────────────────┼───────────────────────────┼─────────────────┼────────────────────────────┤
│ batch_normalization_21        │ (None, 13, 13, 64)        │             192 │ conv2d_21[0][0]            │
│ (BatchNormalization)          │                           │                 │                            │
├───────────────────────────────┼───────────────────────────┼─────────────────┼────────────────────────────┤
│ batch_normalization_24        │ (None, 13, 13, 96)        │             288 │ conv2d_24[0][0]            │
│ (BatchNormalization)          │                           │                 │                            │
├───────────────────────────────┼───────────────────────────┼─────────────────┼────────────────────────────┤
│ batch_normalization_25        │ (None, 13, 13, 64)        │             192 │ conv2d_25[0][0]            │
│ (BatchNormalization)          │                           │                 │                            │
├───────────────────────────────┼───────────────────────────┼─────────────────┼────────────────────────────┤
│ activation_19 (Activation)    │ (None, 13, 13, 64)        │               0 │ batch_normalization_19[0]… │
├───────────────────────────────┼───────────────────────────┼─────────────────┼────────────────────────────┤
│ activation_21 (Activation)    │ (None, 13, 13, 64)        │               0 │ batch_normalization_21[0]… │
├───────────────────────────────┼───────────────────────────┼─────────────────┼────────────────────────────┤
│ activation_24 (Activation)    │ (None, 13, 13, 96)        │               0 │ batch_normalization_24[0]… │
├───────────────────────────────┼───────────────────────────┼─────────────────┼────────────────────────────┤
│ activation_25 (Activation)    │ (None, 13, 13, 64)        │               0 │ batch_normalization_25[0]… │
├───────────────────────────────┼───────────────────────────┼─────────────────┼────────────────────────────┤
│ mixed2 (Concatenate)          │ (None, 13, 13, 288)       │               0 │ activation_19[0][0],       │
│                               │                           │                 │ activation_21[0][0],       │
│                               │                           │                 │ activation_24[0][0],       │
│                               │                           │                 │ activation_25[0][0]        │
├───────────────────────────────┼───────────────────────────┼─────────────────┼────────────────────────────┤
│ conv2d_27 (Conv2D)            │ (None, 13, 13, 64)        │          18,432 │ mixed2[0][0]               │
├───────────────────────────────┼───────────────────────────┼─────────────────┼────────────────────────────┤
│ batch_normalization_27        │ (None, 13, 13, 64)        │             192 │ conv2d_27[0][0]            │
│ (BatchNormalization)          │                           │                 │                            │
├───────────────────────────────┼───────────────────────────┼─────────────────┼────────────────────────────┤
│ activation_27 (Activation)    │ (None, 13, 13, 64)        │               0 │ batch_normalization_27[0]… │
├───────────────────────────────┼───────────────────────────┼─────────────────┼────────────────────────────┤
│ conv2d_28 (Conv2D)            │ (None, 13, 13, 96)        │          55,296 │ activation_27[0][0]        │
├───────────────────────────────┼───────────────────────────┼─────────────────┼────────────────────────────┤
│ batch_normalization_28        │ (None, 13, 13, 96)        │             288 │ conv2d_28[0][0]            │
│ (BatchNormalization)          │                           │                 │                            │
├───────────────────────────────┼───────────────────────────┼─────────────────┼────────────────────────────┤
│ activation_28 (Activation)    │ (None, 13, 13, 96)        │               0 │ batch_normalization_28[0]… │
├───────────────────────────────┼───────────────────────────┼─────────────────┼────────────────────────────┤
│ conv2d_26 (Conv2D)            │ (None, 6, 6, 384)         │         995,328 │ mixed2[0][0]               │
├───────────────────────────────┼───────────────────────────┼─────────────────┼────────────────────────────┤
│ conv2d_29 (Conv2D)            │ (None, 6, 6, 96)          │          82,944 │ activation_28[0][0]        │
├───────────────────────────────┼───────────────────────────┼─────────────────┼────────────────────────────┤
│ batch_normalization_26        │ (None, 6, 6, 384)         │           1,152 │ conv2d_26[0][0]            │
│ (BatchNormalization)          │                           │                 │                            │
├───────────────────────────────┼───────────────────────────┼─────────────────┼────────────────────────────┤
│ batch_normalization_29        │ (None, 6, 6, 96)          │             288 │ conv2d_29[0][0]            │
│ (BatchNormalization)          │                           │                 │                            │
├───────────────────────────────┼───────────────────────────┼─────────────────┼────────────────────────────┤
│ activation_26 (Activation)    │ (None, 6, 6, 384)         │               0 │ batch_normalization_26[0]… │
├───────────────────────────────┼───────────────────────────┼─────────────────┼────────────────────────────┤
│ activation_29 (Activation)    │ (None, 6, 6, 96)          │               0 │ batch_normalization_29[0]… │
├───────────────────────────────┼───────────────────────────┼─────────────────┼────────────────────────────┤
│ max_pooling2d_2               │ (None, 6, 6, 288)         │               0 │ mixed2[0][0]               │
│ (MaxPooling2D)                │                           │                 │                            │
├───────────────────────────────┼───────────────────────────┼─────────────────┼────────────────────────────┤
│ mixed3 (Concatenate)          │ (None, 6, 6, 768)         │               0 │ activation_26[0][0],       │
│                               │                           │                 │ activation_29[0][0],       │
│                               │                           │                 │ max_pooling2d_2[0][0]      │
├───────────────────────────────┼───────────────────────────┼─────────────────┼────────────────────────────┤
│ conv2d_34 (Conv2D)            │ (None, 6, 6, 128)         │          98,304 │ mixed3[0][0]               │
├───────────────────────────────┼───────────────────────────┼─────────────────┼────────────────────────────┤
│ batch_normalization_34        │ (None, 6, 6, 128)         │             384 │ conv2d_34[0][0]            │
│ (BatchNormalization)          │                           │                 │                            │
├───────────────────────────────┼───────────────────────────┼─────────────────┼────────────────────────────┤
│ activation_34 (Activation)    │ (None, 6, 6, 128)         │               0 │ batch_normalization_34[0]… │
├───────────────────────────────┼───────────────────────────┼─────────────────┼────────────────────────────┤
│ conv2d_35 (Conv2D)            │ (None, 6, 6, 128)         │         114,688 │ activation_34[0][0]        │
├───────────────────────────────┼───────────────────────────┼─────────────────┼────────────────────────────┤
│ batch_normalization_35        │ (None, 6, 6, 128)         │             384 │ conv2d_35[0][0]            │
│ (BatchNormalization)          │                           │                 │                            │
├───────────────────────────────┼───────────────────────────┼─────────────────┼────────────────────────────┤
│ activation_35 (Activation)    │ (None, 6, 6, 128)         │               0 │ batch_normalization_35[0]… │
├───────────────────────────────┼───────────────────────────┼─────────────────┼────────────────────────────┤
│ conv2d_31 (Conv2D)            │ (None, 6, 6, 128)         │          98,304 │ mixed3[0][0]               │
├───────────────────────────────┼───────────────────────────┼─────────────────┼────────────────────────────┤
│ conv2d_36 (Conv2D)            │ (None, 6, 6, 128)         │         114,688 │ activation_35[0][0]        │
├───────────────────────────────┼───────────────────────────┼─────────────────┼────────────────────────────┤
│ batch_normalization_31        │ (None, 6, 6, 128)         │             384 │ conv2d_31[0][0]            │
│ (BatchNormalization)          │                           │                 │                            │
├───────────────────────────────┼───────────────────────────┼─────────────────┼────────────────────────────┤
│ batch_normalization_36        │ (None, 6, 6, 128)         │             384 │ conv2d_36[0][0]            │
│ (BatchNormalization)          │                           │                 │                            │
├───────────────────────────────┼───────────────────────────┼─────────────────┼────────────────────────────┤
│ activation_31 (Activation)    │ (None, 6, 6, 128)         │               0 │ batch_normalization_31[0]… │
├───────────────────────────────┼───────────────────────────┼─────────────────┼────────────────────────────┤
│ activation_36 (Activation)    │ (None, 6, 6, 128)         │               0 │ batch_normalization_36[0]… │
├───────────────────────────────┼───────────────────────────┼─────────────────┼────────────────────────────┤
│ conv2d_32 (Conv2D)            │ (None, 6, 6, 128)         │         114,688 │ activation_31[0][0]        │
├───────────────────────────────┼───────────────────────────┼─────────────────┼────────────────────────────┤
│ conv2d_37 (Conv2D)            │ (None, 6, 6, 128)         │         114,688 │ activation_36[0][0]        │
├───────────────────────────────┼───────────────────────────┼─────────────────┼────────────────────────────┤
│ batch_normalization_32        │ (None, 6, 6, 128)         │             384 │ conv2d_32[0][0]            │
│ (BatchNormalization)          │                           │                 │                            │
├───────────────────────────────┼───────────────────────────┼─────────────────┼────────────────────────────┤
│ batch_normalization_37        │ (None, 6, 6, 128)         │             384 │ conv2d_37[0][0]            │
│ (BatchNormalization)          │                           │                 │                            │
├───────────────────────────────┼───────────────────────────┼─────────────────┼────────────────────────────┤
│ activation_32 (Activation)    │ (None, 6, 6, 128)         │               0 │ batch_normalization_32[0]… │
├───────────────────────────────┼───────────────────────────┼─────────────────┼────────────────────────────┤
│ activation_37 (Activation)    │ (None, 6, 6, 128)         │               0 │ batch_normalization_37[0]… │
├───────────────────────────────┼───────────────────────────┼─────────────────┼────────────────────────────┤
│ average_pooling2d_3           │ (None, 6, 6, 768)         │               0 │ mixed3[0][0]               │
│ (AveragePooling2D)            │                           │                 │                            │
├───────────────────────────────┼───────────────────────────┼─────────────────┼────────────────────────────┤
│ conv2d_30 (Conv2D)            │ (None, 6, 6, 192)         │         147,456 │ mixed3[0][0]               │
├───────────────────────────────┼───────────────────────────┼─────────────────┼────────────────────────────┤
│ conv2d_33 (Conv2D)            │ (None, 6, 6, 192)         │         172,032 │ activation_32[0][0]        │
├───────────────────────────────┼───────────────────────────┼─────────────────┼────────────────────────────┤
│ conv2d_38 (Conv2D)            │ (None, 6, 6, 192)         │         172,032 │ activation_37[0][0]        │
├───────────────────────────────┼───────────────────────────┼─────────────────┼────────────────────────────┤
│ conv2d_39 (Conv2D)            │ (None, 6, 6, 192)         │         147,456 │ average_pooling2d_3[0][0]  │
├───────────────────────────────┼───────────────────────────┼─────────────────┼────────────────────────────┤
│ batch_normalization_30        │ (None, 6, 6, 192)         │             576 │ conv2d_30[0][0]            │
│ (BatchNormalization)          │                           │                 │                            │
├───────────────────────────────┼───────────────────────────┼─────────────────┼────────────────────────────┤
│ batch_normalization_33        │ (None, 6, 6, 192)         │             576 │ conv2d_33[0][0]            │
│ (BatchNormalization)          │                           │                 │                            │
├───────────────────────────────┼───────────────────────────┼─────────────────┼────────────────────────────┤
│ batch_normalization_38        │ (None, 6, 6, 192)         │             576 │ conv2d_38[0][0]            │
│ (BatchNormalization)          │                           │                 │                            │
├───────────────────────────────┼───────────────────────────┼─────────────────┼────────────────────────────┤
│ batch_normalization_39        │ (None, 6, 6, 192)         │             576 │ conv2d_39[0][0]            │
│ (BatchNormalization)          │                           │                 │                            │
├───────────────────────────────┼───────────────────────────┼─────────────────┼────────────────────────────┤
│ activation_30 (Activation)    │ (None, 6, 6, 192)         │               0 │ batch_normalization_30[0]… │
├───────────────────────────────┼───────────────────────────┼─────────────────┼────────────────────────────┤
│ activation_33 (Activation)    │ (None, 6, 6, 192)         │               0 │ batch_normalization_33[0]… │
├───────────────────────────────┼───────────────────────────┼─────────────────┼────────────────────────────┤
│ activation_38 (Activation)    │ (None, 6, 6, 192)         │               0 │ batch_normalization_38[0]… │
├───────────────────────────────┼───────────────────────────┼─────────────────┼────────────────────────────┤
│ activation_39 (Activation)    │ (None, 6, 6, 192)         │               0 │ batch_normalization_39[0]… │
├───────────────────────────────┼───────────────────────────┼─────────────────┼────────────────────────────┤
│ mixed4 (Concatenate)          │ (None, 6, 6, 768)         │               0 │ activation_30[0][0],       │
│                               │                           │                 │ activation_33[0][0],       │
│                               │                           │                 │ activation_38[0][0],       │
│                               │                           │                 │ activation_39[0][0]        │
├───────────────────────────────┼───────────────────────────┼─────────────────┼────────────────────────────┤
│ conv2d_44 (Conv2D)            │ (None, 6, 6, 160)         │         122,880 │ mixed4[0][0]               │
├───────────────────────────────┼───────────────────────────┼─────────────────┼────────────────────────────┤
│ batch_normalization_44        │ (None, 6, 6, 160)         │             480 │ conv2d_44[0][0]            │
│ (BatchNormalization)          │                           │                 │                            │
├───────────────────────────────┼───────────────────────────┼─────────────────┼────────────────────────────┤
│ activation_44 (Activation)    │ (None, 6, 6, 160)         │               0 │ batch_normalization_44[0]… │
├───────────────────────────────┼───────────────────────────┼─────────────────┼────────────────────────────┤
│ conv2d_45 (Conv2D)            │ (None, 6, 6, 160)         │         179,200 │ activation_44[0][0]        │
├───────────────────────────────┼───────────────────────────┼─────────────────┼────────────────────────────┤
│ batch_normalization_45        │ (None, 6, 6, 160)         │             480 │ conv2d_45[0][0]            │
│ (BatchNormalization)          │                           │                 │                            │
├───────────────────────────────┼───────────────────────────┼─────────────────┼────────────────────────────┤
│ activation_45 (Activation)    │ (None, 6, 6, 160)         │               0 │ batch_normalization_45[0]… │
├───────────────────────────────┼───────────────────────────┼─────────────────┼────────────────────────────┤
│ conv2d_41 (Conv2D)            │ (None, 6, 6, 160)         │         122,880 │ mixed4[0][0]               │
├───────────────────────────────┼───────────────────────────┼─────────────────┼────────────────────────────┤
│ conv2d_46 (Conv2D)            │ (None, 6, 6, 160)         │         179,200 │ activation_45[0][0]        │
├───────────────────────────────┼───────────────────────────┼─────────────────┼────────────────────────────┤
│ batch_normalization_41        │ (None, 6, 6, 160)         │             480 │ conv2d_41[0][0]            │
│ (BatchNormalization)          │                           │                 │                            │
├───────────────────────────────┼───────────────────────────┼─────────────────┼────────────────────────────┤
│ batch_normalization_46        │ (None, 6, 6, 160)         │             480 │ conv2d_46[0][0]            │
│ (BatchNormalization)          │                           │                 │                            │
├───────────────────────────────┼───────────────────────────┼─────────────────┼────────────────────────────┤
│ activation_41 (Activation)    │ (None, 6, 6, 160)         │               0 │ batch_normalization_41[0]… │
├───────────────────────────────┼───────────────────────────┼─────────────────┼────────────────────────────┤
│ activation_46 (Activation)    │ (None, 6, 6, 160)         │               0 │ batch_normalization_46[0]… │
├───────────────────────────────┼───────────────────────────┼─────────────────┼────────────────────────────┤
│ conv2d_42 (Conv2D)            │ (None, 6, 6, 160)         │         179,200 │ activation_41[0][0]        │
├───────────────────────────────┼───────────────────────────┼─────────────────┼────────────────────────────┤
│ conv2d_47 (Conv2D)            │ (None, 6, 6, 160)         │         179,200 │ activation_46[0][0]        │
├───────────────────────────────┼───────────────────────────┼─────────────────┼────────────────────────────┤
│ batch_normalization_42        │ (None, 6, 6, 160)         │             480 │ conv2d_42[0][0]            │
│ (BatchNormalization)          │                           │                 │                            │
├───────────────────────────────┼───────────────────────────┼─────────────────┼────────────────────────────┤
│ batch_normalization_47        │ (None, 6, 6, 160)         │             480 │ conv2d_47[0][0]            │
│ (BatchNormalization)          │                           │                 │                            │
├───────────────────────────────┼───────────────────────────┼─────────────────┼────────────────────────────┤
│ activation_42 (Activation)    │ (None, 6, 6, 160)         │               0 │ batch_normalization_42[0]… │
├───────────────────────────────┼───────────────────────────┼─────────────────┼────────────────────────────┤
│ activation_47 (Activation)    │ (None, 6, 6, 160)         │               0 │ batch_normalization_47[0]… │
├───────────────────────────────┼───────────────────────────┼─────────────────┼────────────────────────────┤
│ average_pooling2d_4           │ (None, 6, 6, 768)         │               0 │ mixed4[0][0]               │
│ (AveragePooling2D)            │                           │                 │                            │
├───────────────────────────────┼───────────────────────────┼─────────────────┼────────────────────────────┤
│ conv2d_40 (Conv2D)            │ (None, 6, 6, 192)         │         147,456 │ mixed4[0][0]               │
├───────────────────────────────┼───────────────────────────┼─────────────────┼────────────────────────────┤
│ conv2d_43 (Conv2D)            │ (None, 6, 6, 192)         │         215,040 │ activation_42[0][0]        │
├───────────────────────────────┼───────────────────────────┼─────────────────┼────────────────────────────┤
│ conv2d_48 (Conv2D)            │ (None, 6, 6, 192)         │         215,040 │ activation_47[0][0]        │
├───────────────────────────────┼───────────────────────────┼─────────────────┼────────────────────────────┤
│ conv2d_49 (Conv2D)            │ (None, 6, 6, 192)         │         147,456 │ average_pooling2d_4[0][0]  │
├───────────────────────────────┼───────────────────────────┼─────────────────┼────────────────────────────┤
│ batch_normalization_40        │ (None, 6, 6, 192)         │             576 │ conv2d_40[0][0]            │
│ (BatchNormalization)          │                           │                 │                            │
├───────────────────────────────┼───────────────────────────┼─────────────────┼────────────────────────────┤
│ batch_normalization_43        │ (None, 6, 6, 192)         │             576 │ conv2d_43[0][0]            │
│ (BatchNormalization)          │                           │                 │                            │
├───────────────────────────────┼───────────────────────────┼─────────────────┼────────────────────────────┤
│ batch_normalization_48        │ (None, 6, 6, 192)         │             576 │ conv2d_48[0][0]            │
│ (BatchNormalization)          │                           │                 │                            │
├───────────────────────────────┼───────────────────────────┼─────────────────┼────────────────────────────┤
│ batch_normalization_49        │ (None, 6, 6, 192)         │             576 │ conv2d_49[0][0]            │
│ (BatchNormalization)          │                           │                 │                            │
├───────────────────────────────┼───────────────────────────┼─────────────────┼────────────────────────────┤
│ activation_40 (Activation)    │ (None, 6, 6, 192)         │               0 │ batch_normalization_40[0]… │
├───────────────────────────────┼───────────────────────────┼─────────────────┼────────────────────────────┤
│ activation_43 (Activation)    │ (None, 6, 6, 192)         │               0 │ batch_normalization_43[0]… │
├───────────────────────────────┼───────────────────────────┼─────────────────┼────────────────────────────┤
│ activation_48 (Activation)    │ (None, 6, 6, 192)         │               0 │ batch_normalization_48[0]… │
├───────────────────────────────┼───────────────────────────┼─────────────────┼────────────────────────────┤
│ activation_49 (Activation)    │ (None, 6, 6, 192)         │               0 │ batch_normalization_49[0]… │
├───────────────────────────────┼───────────────────────────┼─────────────────┼────────────────────────────┤
│ mixed5 (Concatenate)          │ (None, 6, 6, 768)         │               0 │ activation_40[0][0],       │
│                               │                           │                 │ activation_43[0][0],       │
│                               │                           │                 │ activation_48[0][0],       │
│                               │                           │                 │ activation_49[0][0]        │
├───────────────────────────────┼───────────────────────────┼─────────────────┼────────────────────────────┤
│ conv2d_54 (Conv2D)            │ (None, 6, 6, 160)         │         122,880 │ mixed5[0][0]               │
├───────────────────────────────┼───────────────────────────┼─────────────────┼────────────────────────────┤
│ batch_normalization_54        │ (None, 6, 6, 160)         │             480 │ conv2d_54[0][0]            │
│ (BatchNormalization)          │                           │                 │                            │
├───────────────────────────────┼───────────────────────────┼─────────────────┼────────────────────────────┤
│ activation_54 (Activation)    │ (None, 6, 6, 160)         │               0 │ batch_normalization_54[0]… │
├───────────────────────────────┼───────────────────────────┼─────────────────┼────────────────────────────┤
│ conv2d_55 (Conv2D)            │ (None, 6, 6, 160)         │         179,200 │ activation_54[0][0]        │
├───────────────────────────────┼───────────────────────────┼─────────────────┼────────────────────────────┤
│ batch_normalization_55        │ (None, 6, 6, 160)         │             480 │ conv2d_55[0][0]            │
│ (BatchNormalization)          │                           │                 │                            │
├───────────────────────────────┼───────────────────────────┼─────────────────┼────────────────────────────┤
│ activation_55 (Activation)    │ (None, 6, 6, 160)         │               0 │ batch_normalization_55[0]… │
├───────────────────────────────┼───────────────────────────┼─────────────────┼────────────────────────────┤
│ conv2d_51 (Conv2D)            │ (None, 6, 6, 160)         │         122,880 │ mixed5[0][0]               │
├───────────────────────────────┼───────────────────────────┼─────────────────┼────────────────────────────┤
│ conv2d_56 (Conv2D)            │ (None, 6, 6, 160)         │         179,200 │ activation_55[0][0]        │
├───────────────────────────────┼───────────────────────────┼─────────────────┼────────────────────────────┤
│ batch_normalization_51        │ (None, 6, 6, 160)         │             480 │ conv2d_51[0][0]            │
│ (BatchNormalization)          │                           │                 │                            │
├───────────────────────────────┼───────────────────────────┼─────────────────┼────────────────────────────┤
│ batch_normalization_56        │ (None, 6, 6, 160)         │             480 │ conv2d_56[0][0]            │
│ (BatchNormalization)          │                           │                 │                            │
├───────────────────────────────┼───────────────────────────┼─────────────────┼────────────────────────────┤
│ activation_51 (Activation)    │ (None, 6, 6, 160)         │               0 │ batch_normalization_51[0]… │
├───────────────────────────────┼───────────────────────────┼─────────────────┼────────────────────────────┤
│ activation_56 (Activation)    │ (None, 6, 6, 160)         │               0 │ batch_normalization_56[0]… │
├───────────────────────────────┼───────────────────────────┼─────────────────┼────────────────────────────┤
│ conv2d_52 (Conv2D)            │ (None, 6, 6, 160)         │         179,200 │ activation_51[0][0]        │
├───────────────────────────────┼───────────────────────────┼─────────────────┼────────────────────────────┤
│ conv2d_57 (Conv2D)            │ (None, 6, 6, 160)         │         179,200 │ activation_56[0][0]        │
├───────────────────────────────┼───────────────────────────┼─────────────────┼────────────────────────────┤
│ batch_normalization_52        │ (None, 6, 6, 160)         │             480 │ conv2d_52[0][0]            │
│ (BatchNormalization)          │                           │                 │                            │
├───────────────────────────────┼───────────────────────────┼─────────────────┼────────────────────────────┤
│ batch_normalization_57        │ (None, 6, 6, 160)         │             480 │ conv2d_57[0][0]            │
│ (BatchNormalization)          │                           │                 │                            │
├───────────────────────────────┼───────────────────────────┼─────────────────┼────────────────────────────┤
│ activation_52 (Activation)    │ (None, 6, 6, 160)         │               0 │ batch_normalization_52[0]… │
├───────────────────────────────┼───────────────────────────┼─────────────────┼────────────────────────────┤
│ activation_57 (Activation)    │ (None, 6, 6, 160)         │               0 │ batch_normalization_57[0]… │
├───────────────────────────────┼───────────────────────────┼─────────────────┼────────────────────────────┤
│ average_pooling2d_5           │ (None, 6, 6, 768)         │               0 │ mixed5[0][0]               │
│ (AveragePooling2D)            │                           │                 │                            │
├───────────────────────────────┼───────────────────────────┼─────────────────┼────────────────────────────┤
│ conv2d_50 (Conv2D)            │ (None, 6, 6, 192)         │         147,456 │ mixed5[0][0]               │
├───────────────────────────────┼───────────────────────────┼─────────────────┼────────────────────────────┤
│ conv2d_53 (Conv2D)            │ (None, 6, 6, 192)         │         215,040 │ activation_52[0][0]        │
├───────────────────────────────┼───────────────────────────┼─────────────────┼────────────────────────────┤
│ conv2d_58 (Conv2D)            │ (None, 6, 6, 192)         │         215,040 │ activation_57[0][0]        │
├───────────────────────────────┼───────────────────────────┼─────────────────┼────────────────────────────┤
│ conv2d_59 (Conv2D)            │ (None, 6, 6, 192)         │         147,456 │ average_pooling2d_5[0][0]  │
├───────────────────────────────┼───────────────────────────┼─────────────────┼────────────────────────────┤
│ batch_normalization_50        │ (None, 6, 6, 192)         │             576 │ conv2d_50[0][0]            │
│ (BatchNormalization)          │                           │                 │                            │
├───────────────────────────────┼───────────────────────────┼─────────────────┼────────────────────────────┤
│ batch_normalization_53        │ (None, 6, 6, 192)         │             576 │ conv2d_53[0][0]            │
│ (BatchNormalization)          │                           │                 │                            │
├───────────────────────────────┼───────────────────────────┼─────────────────┼────────────────────────────┤
│ batch_normalization_58        │ (None, 6, 6, 192)         │             576 │ conv2d_58[0][0]            │
│ (BatchNormalization)          │                           │                 │                            │
├───────────────────────────────┼───────────────────────────┼─────────────────┼────────────────────────────┤
│ batch_normalization_59        │ (None, 6, 6, 192)         │             576 │ conv2d_59[0][0]            │
│ (BatchNormalization)          │                           │                 │                            │
├───────────────────────────────┼───────────────────────────┼─────────────────┼────────────────────────────┤
│ activation_50 (Activation)    │ (None, 6, 6, 192)         │               0 │ batch_normalization_50[0]… │
├───────────────────────────────┼───────────────────────────┼─────────────────┼────────────────────────────┤
│ activation_53 (Activation)    │ (None, 6, 6, 192)         │               0 │ batch_normalization_53[0]… │
├───────────────────────────────┼───────────────────────────┼─────────────────┼────────────────────────────┤
│ activation_58 (Activation)    │ (None, 6, 6, 192)         │               0 │ batch_normalization_58[0]… │
├───────────────────────────────┼───────────────────────────┼─────────────────┼────────────────────────────┤
│ activation_59 (Activation)    │ (None, 6, 6, 192)         │               0 │ batch_normalization_59[0]… │
├───────────────────────────────┼───────────────────────────┼─────────────────┼────────────────────────────┤
│ mixed6 (Concatenate)          │ (None, 6, 6, 768)         │               0 │ activation_50[0][0],       │
│                               │                           │                 │ activation_53[0][0],       │
│                               │                           │                 │ activation_58[0][0],       │
│                               │                           │                 │ activation_59[0][0]        │
├───────────────────────────────┼───────────────────────────┼─────────────────┼────────────────────────────┤
│ conv2d_64 (Conv2D)            │ (None, 6, 6, 192)         │         147,456 │ mixed6[0][0]               │
├───────────────────────────────┼───────────────────────────┼─────────────────┼────────────────────────────┤
│ batch_normalization_64        │ (None, 6, 6, 192)         │             576 │ conv2d_64[0][0]            │
│ (BatchNormalization)          │                           │                 │                            │
├───────────────────────────────┼───────────────────────────┼─────────────────┼────────────────────────────┤
│ activation_64 (Activation)    │ (None, 6, 6, 192)         │               0 │ batch_normalization_64[0]… │
├───────────────────────────────┼───────────────────────────┼─────────────────┼────────────────────────────┤
│ conv2d_65 (Conv2D)            │ (None, 6, 6, 192)         │         258,048 │ activation_64[0][0]        │
├───────────────────────────────┼───────────────────────────┼─────────────────┼────────────────────────────┤
│ batch_normalization_65        │ (None, 6, 6, 192)         │             576 │ conv2d_65[0][0]            │
│ (BatchNormalization)          │                           │                 │                            │
├───────────────────────────────┼───────────────────────────┼─────────────────┼────────────────────────────┤
│ activation_65 (Activation)    │ (None, 6, 6, 192)         │               0 │ batch_normalization_65[0]… │
├───────────────────────────────┼───────────────────────────┼─────────────────┼────────────────────────────┤
│ conv2d_61 (Conv2D)            │ (None, 6, 6, 192)         │         147,456 │ mixed6[0][0]               │
├───────────────────────────────┼───────────────────────────┼─────────────────┼────────────────────────────┤
│ conv2d_66 (Conv2D)            │ (None, 6, 6, 192)         │         258,048 │ activation_65[0][0]        │
├───────────────────────────────┼───────────────────────────┼─────────────────┼────────────────────────────┤
│ batch_normalization_61        │ (None, 6, 6, 192)         │             576 │ conv2d_61[0][0]            │
│ (BatchNormalization)          │                           │                 │                            │
├───────────────────────────────┼───────────────────────────┼─────────────────┼────────────────────────────┤
│ batch_normalization_66        │ (None, 6, 6, 192)         │             576 │ conv2d_66[0][0]            │
│ (BatchNormalization)          │                           │                 │                            │
├───────────────────────────────┼───────────────────────────┼─────────────────┼────────────────────────────┤
│ activation_61 (Activation)    │ (None, 6, 6, 192)         │               0 │ batch_normalization_61[0]… │
├───────────────────────────────┼───────────────────────────┼─────────────────┼────────────────────────────┤
│ activation_66 (Activation)    │ (None, 6, 6, 192)         │               0 │ batch_normalization_66[0]… │
├───────────────────────────────┼───────────────────────────┼─────────────────┼────────────────────────────┤
│ conv2d_62 (Conv2D)            │ (None, 6, 6, 192)         │         258,048 │ activation_61[0][0]        │
├───────────────────────────────┼───────────────────────────┼─────────────────┼────────────────────────────┤
│ conv2d_67 (Conv2D)            │ (None, 6, 6, 192)         │         258,048 │ activation_66[0][0]        │
├───────────────────────────────┼───────────────────────────┼─────────────────┼────────────────────────────┤
│ batch_normalization_62        │ (None, 6, 6, 192)         │             576 │ conv2d_62[0][0]            │
│ (BatchNormalization)          │                           │                 │                            │
├───────────────────────────────┼───────────────────────────┼─────────────────┼────────────────────────────┤
│ batch_normalization_67        │ (None, 6, 6, 192)         │             576 │ conv2d_67[0][0]            │
│ (BatchNormalization)          │                           │                 │                            │
├───────────────────────────────┼───────────────────────────┼─────────────────┼────────────────────────────┤
│ activation_62 (Activation)    │ (None, 6, 6, 192)         │               0 │ batch_normalization_62[0]… │
├───────────────────────────────┼───────────────────────────┼─────────────────┼────────────────────────────┤
│ activation_67 (Activation)    │ (None, 6, 6, 192)         │               0 │ batch_normalization_67[0]… │
├───────────────────────────────┼───────────────────────────┼─────────────────┼────────────────────────────┤
│ average_pooling2d_6           │ (None, 6, 6, 768)         │               0 │ mixed6[0][0]               │
│ (AveragePooling2D)            │                           │                 │                            │
├───────────────────────────────┼───────────────────────────┼─────────────────┼────────────────────────────┤
│ conv2d_60 (Conv2D)            │ (None, 6, 6, 192)         │         147,456 │ mixed6[0][0]               │
├───────────────────────────────┼───────────────────────────┼─────────────────┼────────────────────────────┤
│ conv2d_63 (Conv2D)            │ (None, 6, 6, 192)         │         258,048 │ activation_62[0][0]        │
├───────────────────────────────┼───────────────────────────┼─────────────────┼────────────────────────────┤
│ conv2d_68 (Conv2D)            │ (None, 6, 6, 192)         │         258,048 │ activation_67[0][0]        │
├───────────────────────────────┼───────────────────────────┼─────────────────┼────────────────────────────┤
│ conv2d_69 (Conv2D)            │ (None, 6, 6, 192)         │         147,456 │ average_pooling2d_6[0][0]  │
├───────────────────────────────┼───────────────────────────┼─────────────────┼────────────────────────────┤
│ batch_normalization_60        │ (None, 6, 6, 192)         │             576 │ conv2d_60[0][0]            │
│ (BatchNormalization)          │                           │                 │                            │
├───────────────────────────────┼───────────────────────────┼─────────────────┼────────────────────────────┤
│ batch_normalization_63        │ (None, 6, 6, 192)         │             576 │ conv2d_63[0][0]            │
│ (BatchNormalization)          │                           │                 │                            │
├───────────────────────────────┼───────────────────────────┼─────────────────┼────────────────────────────┤
│ batch_normalization_68        │ (None, 6, 6, 192)         │             576 │ conv2d_68[0][0]            │
│ (BatchNormalization)          │                           │                 │                            │
├───────────────────────────────┼───────────────────────────┼─────────────────┼────────────────────────────┤
│ batch_normalization_69        │ (None, 6, 6, 192)         │             576 │ conv2d_69[0][0]            │
│ (BatchNormalization)          │                           │                 │                            │
├───────────────────────────────┼───────────────────────────┼─────────────────┼────────────────────────────┤
│ activation_60 (Activation)    │ (None, 6, 6, 192)         │               0 │ batch_normalization_60[0]… │
├───────────────────────────────┼───────────────────────────┼─────────────────┼────────────────────────────┤
│ activation_63 (Activation)    │ (None, 6, 6, 192)         │               0 │ batch_normalization_63[0]… │
├───────────────────────────────┼───────────────────────────┼─────────────────┼────────────────────────────┤
│ activation_68 (Activation)    │ (None, 6, 6, 192)         │               0 │ batch_normalization_68[0]… │
├───────────────────────────────┼───────────────────────────┼─────────────────┼────────────────────────────┤
│ activation_69 (Activation)    │ (None, 6, 6, 192)         │               0 │ batch_normalization_69[0]… │
├───────────────────────────────┼───────────────────────────┼─────────────────┼────────────────────────────┤
│ mixed7 (Concatenate)          │ (None, 6, 6, 768)         │               0 │ activation_60[0][0],       │
│                               │                           │                 │ activation_63[0][0],       │
│                               │                           │                 │ activation_68[0][0],       │
│                               │                           │                 │ activation_69[0][0]        │
├───────────────────────────────┼───────────────────────────┼─────────────────┼────────────────────────────┤
│ conv2d_72 (Conv2D)            │ (None, 6, 6, 192)         │         147,456 │ mixed7[0][0]               │
├───────────────────────────────┼───────────────────────────┼─────────────────┼────────────────────────────┤
│ batch_normalization_72        │ (None, 6, 6, 192)         │             576 │ conv2d_72[0][0]            │
│ (BatchNormalization)          │                           │                 │                            │
├───────────────────────────────┼───────────────────────────┼─────────────────┼────────────────────────────┤
│ activation_72 (Activation)    │ (None, 6, 6, 192)         │               0 │ batch_normalization_72[0]… │
├───────────────────────────────┼───────────────────────────┼─────────────────┼────────────────────────────┤
│ conv2d_73 (Conv2D)            │ (None, 6, 6, 192)         │         258,048 │ activation_72[0][0]        │
├───────────────────────────────┼───────────────────────────┼─────────────────┼────────────────────────────┤
│ batch_normalization_73        │ (None, 6, 6, 192)         │             576 │ conv2d_73[0][0]            │
│ (BatchNormalization)          │                           │                 │                            │
├───────────────────────────────┼───────────────────────────┼─────────────────┼────────────────────────────┤
│ activation_73 (Activation)    │ (None, 6, 6, 192)         │               0 │ batch_normalization_73[0]… │
├───────────────────────────────┼───────────────────────────┼─────────────────┼────────────────────────────┤
│ conv2d_70 (Conv2D)            │ (None, 6, 6, 192)         │         147,456 │ mixed7[0][0]               │
├───────────────────────────────┼───────────────────────────┼─────────────────┼────────────────────────────┤
│ conv2d_74 (Conv2D)            │ (None, 6, 6, 192)         │         258,048 │ activation_73[0][0]        │
├───────────────────────────────┼───────────────────────────┼─────────────────┼────────────────────────────┤
│ batch_normalization_70        │ (None, 6, 6, 192)         │             576 │ conv2d_70[0][0]            │
│ (BatchNormalization)          │                           │                 │                            │
├───────────────────────────────┼───────────────────────────┼─────────────────┼────────────────────────────┤
│ batch_normalization_74        │ (None, 6, 6, 192)         │             576 │ conv2d_74[0][0]            │
│ (BatchNormalization)          │                           │                 │                            │
├───────────────────────────────┼───────────────────────────┼─────────────────┼────────────────────────────┤
│ activation_70 (Activation)    │ (None, 6, 6, 192)         │               0 │ batch_normalization_70[0]… │
├───────────────────────────────┼───────────────────────────┼─────────────────┼────────────────────────────┤
│ activation_74 (Activation)    │ (None, 6, 6, 192)         │               0 │ batch_normalization_74[0]… │
├───────────────────────────────┼───────────────────────────┼─────────────────┼────────────────────────────┤
│ conv2d_71 (Conv2D)            │ (None, 2, 2, 320)         │         552,960 │ activation_70[0][0]        │
├───────────────────────────────┼───────────────────────────┼─────────────────┼────────────────────────────┤
│ conv2d_75 (Conv2D)            │ (None, 2, 2, 192)         │         331,776 │ activation_74[0][0]        │
├───────────────────────────────┼───────────────────────────┼─────────────────┼────────────────────────────┤
│ batch_normalization_71        │ (None, 2, 2, 320)         │             960 │ conv2d_71[0][0]            │
│ (BatchNormalization)          │                           │                 │                            │
├───────────────────────────────┼───────────────────────────┼─────────────────┼────────────────────────────┤
│ batch_normalization_75        │ (None, 2, 2, 192)         │             576 │ conv2d_75[0][0]            │
│ (BatchNormalization)          │                           │                 │                            │
├───────────────────────────────┼───────────────────────────┼─────────────────┼────────────────────────────┤
│ activation_71 (Activation)    │ (None, 2, 2, 320)         │               0 │ batch_normalization_71[0]… │
├───────────────────────────────┼───────────────────────────┼─────────────────┼────────────────────────────┤
│ activation_75 (Activation)    │ (None, 2, 2, 192)         │               0 │ batch_normalization_75[0]… │
├───────────────────────────────┼───────────────────────────┼─────────────────┼────────────────────────────┤
│ max_pooling2d_3               │ (None, 2, 2, 768)         │               0 │ mixed7[0][0]               │
│ (MaxPooling2D)                │                           │                 │                            │
├───────────────────────────────┼───────────────────────────┼─────────────────┼────────────────────────────┤
│ mixed8 (Concatenate)          │ (None, 2, 2, 1280)        │               0 │ activation_71[0][0],       │
│                               │                           │                 │ activation_75[0][0],       │
│                               │                           │                 │ max_pooling2d_3[0][0]      │
├───────────────────────────────┼───────────────────────────┼─────────────────┼────────────────────────────┤
│ conv2d_80 (Conv2D)            │ (None, 2, 2, 448)         │         573,440 │ mixed8[0][0]               │
├───────────────────────────────┼───────────────────────────┼─────────────────┼────────────────────────────┤
│ batch_normalization_80        │ (None, 2, 2, 448)         │           1,344 │ conv2d_80[0][0]            │
│ (BatchNormalization)          │                           │                 │                            │
├───────────────────────────────┼───────────────────────────┼─────────────────┼────────────────────────────┤
│ activation_80 (Activation)    │ (None, 2, 2, 448)         │               0 │ batch_normalization_80[0]… │
├───────────────────────────────┼───────────────────────────┼─────────────────┼────────────────────────────┤
│ conv2d_77 (Conv2D)            │ (None, 2, 2, 384)         │         491,520 │ mixed8[0][0]               │
├───────────────────────────────┼───────────────────────────┼─────────────────┼────────────────────────────┤
│ conv2d_81 (Conv2D)            │ (None, 2, 2, 384)         │       1,548,288 │ activation_80[0][0]        │
├───────────────────────────────┼───────────────────────────┼─────────────────┼────────────────────────────┤
│ batch_normalization_77        │ (None, 2, 2, 384)         │           1,152 │ conv2d_77[0][0]            │
│ (BatchNormalization)          │                           │                 │                            │
├───────────────────────────────┼───────────────────────────┼─────────────────┼────────────────────────────┤
│ batch_normalization_81        │ (None, 2, 2, 384)         │           1,152 │ conv2d_81[0][0]            │
│ (BatchNormalization)          │                           │                 │                            │
├───────────────────────────────┼───────────────────────────┼─────────────────┼────────────────────────────┤
│ activation_77 (Activation)    │ (None, 2, 2, 384)         │               0 │ batch_normalization_77[0]… │
├───────────────────────────────┼───────────────────────────┼─────────────────┼────────────────────────────┤
│ activation_81 (Activation)    │ (None, 2, 2, 384)         │               0 │ batch_normalization_81[0]… │
├───────────────────────────────┼───────────────────────────┼─────────────────┼────────────────────────────┤
│ conv2d_78 (Conv2D)            │ (None, 2, 2, 384)         │         442,368 │ activation_77[0][0]        │
├───────────────────────────────┼───────────────────────────┼─────────────────┼────────────────────────────┤
│ conv2d_79 (Conv2D)            │ (None, 2, 2, 384)         │         442,368 │ activation_77[0][0]        │
├───────────────────────────────┼───────────────────────────┼─────────────────┼────────────────────────────┤
│ conv2d_82 (Conv2D)            │ (None, 2, 2, 384)         │         442,368 │ activation_81[0][0]        │
├───────────────────────────────┼───────────────────────────┼─────────────────┼────────────────────────────┤
│ conv2d_83 (Conv2D)            │ (None, 2, 2, 384)         │         442,368 │ activation_81[0][0]        │
├───────────────────────────────┼───────────────────────────┼─────────────────┼────────────────────────────┤
│ average_pooling2d_7           │ (None, 2, 2, 1280)        │               0 │ mixed8[0][0]               │
│ (AveragePooling2D)            │                           │                 │                            │
├───────────────────────────────┼───────────────────────────┼─────────────────┼────────────────────────────┤
│ conv2d_76 (Conv2D)            │ (None, 2, 2, 320)         │         409,600 │ mixed8[0][0]               │
├───────────────────────────────┼───────────────────────────┼─────────────────┼────────────────────────────┤
│ batch_normalization_78        │ (None, 2, 2, 384)         │           1,152 │ conv2d_78[0][0]            │
│ (BatchNormalization)          │                           │                 │                            │
├───────────────────────────────┼───────────────────────────┼─────────────────┼────────────────────────────┤
│ batch_normalization_79        │ (None, 2, 2, 384)         │           1,152 │ conv2d_79[0][0]            │
│ (BatchNormalization)          │                           │                 │                            │
├───────────────────────────────┼───────────────────────────┼─────────────────┼────────────────────────────┤
│ batch_normalization_82        │ (None, 2, 2, 384)         │           1,152 │ conv2d_82[0][0]            │
│ (BatchNormalization)          │                           │                 │                            │
├───────────────────────────────┼───────────────────────────┼─────────────────┼────────────────────────────┤
│ batch_normalization_83        │ (None, 2, 2, 384)         │           1,152 │ conv2d_83[0][0]            │
│ (BatchNormalization)          │                           │                 │                            │
├───────────────────────────────┼───────────────────────────┼─────────────────┼────────────────────────────┤
│ conv2d_84 (Conv2D)            │ (None, 2, 2, 192)         │         245,760 │ average_pooling2d_7[0][0]  │
├───────────────────────────────┼───────────────────────────┼─────────────────┼────────────────────────────┤
│ batch_normalization_76        │ (None, 2, 2, 320)         │             960 │ conv2d_76[0][0]            │
│ (BatchNormalization)          │                           │                 │                            │
├───────────────────────────────┼───────────────────────────┼─────────────────┼────────────────────────────┤
│ activation_78 (Activation)    │ (None, 2, 2, 384)         │               0 │ batch_normalization_78[0]… │
├───────────────────────────────┼───────────────────────────┼─────────────────┼────────────────────────────┤
│ activation_79 (Activation)    │ (None, 2, 2, 384)         │               0 │ batch_normalization_79[0]… │
├───────────────────────────────┼───────────────────────────┼─────────────────┼────────────────────────────┤
│ activation_82 (Activation)    │ (None, 2, 2, 384)         │               0 │ batch_normalization_82[0]… │
├───────────────────────────────┼───────────────────────────┼─────────────────┼────────────────────────────┤
│ activation_83 (Activation)    │ (None, 2, 2, 384)         │               0 │ batch_normalization_83[0]… │
├───────────────────────────────┼───────────────────────────┼─────────────────┼────────────────────────────┤
│ batch_normalization_84        │ (None, 2, 2, 192)         │             576 │ conv2d_84[0][0]            │
│ (BatchNormalization)          │                           │                 │                            │
├───────────────────────────────┼───────────────────────────┼─────────────────┼────────────────────────────┤
│ activation_76 (Activation)    │ (None, 2, 2, 320)         │               0 │ batch_normalization_76[0]… │
├───────────────────────────────┼───────────────────────────┼─────────────────┼────────────────────────────┤
│ mixed9_0 (Concatenate)        │ (None, 2, 2, 768)         │               0 │ activation_78[0][0],       │
│                               │                           │                 │ activation_79[0][0]        │
├───────────────────────────────┼───────────────────────────┼─────────────────┼────────────────────────────┤
│ concatenate (Concatenate)     │ (None, 2, 2, 768)         │               0 │ activation_82[0][0],       │
│                               │                           │                 │ activation_83[0][0]        │
├───────────────────────────────┼───────────────────────────┼─────────────────┼────────────────────────────┤
│ activation_84 (Activation)    │ (None, 2, 2, 192)         │               0 │ batch_normalization_84[0]… │
├───────────────────────────────┼───────────────────────────┼─────────────────┼────────────────────────────┤
│ mixed9 (Concatenate)          │ (None, 2, 2, 2048)        │               0 │ activation_76[0][0],       │
│                               │                           │                 │ mixed9_0[0][0],            │
│                               │                           │                 │ concatenate[0][0],         │
│                               │                           │                 │ activation_84[0][0]        │
├───────────────────────────────┼───────────────────────────┼─────────────────┼────────────────────────────┤
│ conv2d_89 (Conv2D)            │ (None, 2, 2, 448)         │         917,504 │ mixed9[0][0]               │
├───────────────────────────────┼───────────────────────────┼─────────────────┼────────────────────────────┤
│ batch_normalization_89        │ (None, 2, 2, 448)         │           1,344 │ conv2d_89[0][0]            │
│ (BatchNormalization)          │                           │                 │                            │
├───────────────────────────────┼───────────────────────────┼─────────────────┼────────────────────────────┤
│ activation_89 (Activation)    │ (None, 2, 2, 448)         │               0 │ batch_normalization_89[0]… │
├───────────────────────────────┼───────────────────────────┼─────────────────┼────────────────────────────┤
│ conv2d_86 (Conv2D)            │ (None, 2, 2, 384)         │         786,432 │ mixed9[0][0]               │
├───────────────────────────────┼───────────────────────────┼─────────────────┼────────────────────────────┤
│ conv2d_90 (Conv2D)            │ (None, 2, 2, 384)         │       1,548,288 │ activation_89[0][0]        │
├───────────────────────────────┼───────────────────────────┼─────────────────┼────────────────────────────┤
│ batch_normalization_86        │ (None, 2, 2, 384)         │           1,152 │ conv2d_86[0][0]            │
│ (BatchNormalization)          │                           │                 │                            │
├───────────────────────────────┼───────────────────────────┼─────────────────┼────────────────────────────┤
│ batch_normalization_90        │ (None, 2, 2, 384)         │           1,152 │ conv2d_90[0][0]            │
│ (BatchNormalization)          │                           │                 │                            │
├───────────────────────────────┼───────────────────────────┼─────────────────┼────────────────────────────┤
│ activation_86 (Activation)    │ (None, 2, 2, 384)         │               0 │ batch_normalization_86[0]… │
├───────────────────────────────┼───────────────────────────┼─────────────────┼────────────────────────────┤
│ activation_90 (Activation)    │ (None, 2, 2, 384)         │               0 │ batch_normalization_90[0]… │
├───────────────────────────────┼───────────────────────────┼─────────────────┼────────────────────────────┤
│ conv2d_87 (Conv2D)            │ (None, 2, 2, 384)         │         442,368 │ activation_86[0][0]        │
├───────────────────────────────┼───────────────────────────┼─────────────────┼────────────────────────────┤
│ conv2d_88 (Conv2D)            │ (None, 2, 2, 384)         │         442,368 │ activation_86[0][0]        │
├───────────────────────────────┼───────────────────────────┼─────────────────┼────────────────────────────┤
│ conv2d_91 (Conv2D)            │ (None, 2, 2, 384)         │         442,368 │ activation_90[0][0]        │
├───────────────────────────────┼───────────────────────────┼─────────────────┼────────────────────────────┤
│ conv2d_92 (Conv2D)            │ (None, 2, 2, 384)         │         442,368 │ activation_90[0][0]        │
├───────────────────────────────┼───────────────────────────┼─────────────────┼────────────────────────────┤
│ average_pooling2d_8           │ (None, 2, 2, 2048)        │               0 │ mixed9[0][0]               │
│ (AveragePooling2D)            │                           │                 │                            │
├───────────────────────────────┼───────────────────────────┼─────────────────┼────────────────────────────┤
│ conv2d_85 (Conv2D)            │ (None, 2, 2, 320)         │         655,360 │ mixed9[0][0]               │
├───────────────────────────────┼───────────────────────────┼─────────────────┼────────────────────────────┤
│ batch_normalization_87        │ (None, 2, 2, 384)         │           1,152 │ conv2d_87[0][0]            │
│ (BatchNormalization)          │                           │                 │                            │
├───────────────────────────────┼───────────────────────────┼─────────────────┼────────────────────────────┤
│ batch_normalization_88        │ (None, 2, 2, 384)         │           1,152 │ conv2d_88[0][0]            │
│ (BatchNormalization)          │                           │                 │                            │
├───────────────────────────────┼───────────────────────────┼─────────────────┼────────────────────────────┤
│ batch_normalization_91        │ (None, 2, 2, 384)         │           1,152 │ conv2d_91[0][0]            │
│ (BatchNormalization)          │                           │                 │                            │
├───────────────────────────────┼───────────────────────────┼─────────────────┼────────────────────────────┤
│ batch_normalization_92        │ (None, 2, 2, 384)         │           1,152 │ conv2d_92[0][0]            │
│ (BatchNormalization)          │                           │                 │                            │
├───────────────────────────────┼───────────────────────────┼─────────────────┼────────────────────────────┤
│ conv2d_93 (Conv2D)            │ (None, 2, 2, 192)         │         393,216 │ average_pooling2d_8[0][0]  │
├───────────────────────────────┼───────────────────────────┼─────────────────┼────────────────────────────┤
│ batch_normalization_85        │ (None, 2, 2, 320)         │             960 │ conv2d_85[0][0]            │
│ (BatchNormalization)          │                           │                 │                            │
├───────────────────────────────┼───────────────────────────┼─────────────────┼────────────────────────────┤
│ activation_87 (Activation)    │ (None, 2, 2, 384)         │               0 │ batch_normalization_87[0]… │
├───────────────────────────────┼───────────────────────────┼─────────────────┼────────────────────────────┤
│ activation_88 (Activation)    │ (None, 2, 2, 384)         │               0 │ batch_normalization_88[0]… │
├───────────────────────────────┼───────────────────────────┼─────────────────┼────────────────────────────┤
│ activation_91 (Activation)    │ (None, 2, 2, 384)         │               0 │ batch_normalization_91[0]… │
├───────────────────────────────┼───────────────────────────┼─────────────────┼────────────────────────────┤
│ activation_92 (Activation)    │ (None, 2, 2, 384)         │               0 │ batch_normalization_92[0]… │
├───────────────────────────────┼───────────────────────────┼─────────────────┼────────────────────────────┤
│ batch_normalization_93        │ (None, 2, 2, 192)         │             576 │ conv2d_93[0][0]            │
│ (BatchNormalization)          │                           │                 │                            │
├───────────────────────────────┼───────────────────────────┼─────────────────┼────────────────────────────┤
│ activation_85 (Activation)    │ (None, 2, 2, 320)         │               0 │ batch_normalization_85[0]… │
├───────────────────────────────┼───────────────────────────┼─────────────────┼────────────────────────────┤
│ mixed9_1 (Concatenate)        │ (None, 2, 2, 768)         │               0 │ activation_87[0][0],       │
│                               │                           │                 │ activation_88[0][0]        │
├───────────────────────────────┼───────────────────────────┼─────────────────┼────────────────────────────┤
│ concatenate_1 (Concatenate)   │ (None, 2, 2, 768)         │               0 │ activation_91[0][0],       │
│                               │                           │                 │ activation_92[0][0]        │
├───────────────────────────────┼───────────────────────────┼─────────────────┼────────────────────────────┤
│ activation_93 (Activation)    │ (None, 2, 2, 192)         │               0 │ batch_normalization_93[0]… │
├───────────────────────────────┼───────────────────────────┼─────────────────┼────────────────────────────┤
│ mixed10 (Concatenate)         │ (None, 2, 2, 2048)        │               0 │ activation_85[0][0],       │
│                               │                           │                 │ mixed9_1[0][0],            │
│                               │                           │                 │ concatenate_1[0][0],       │
│                               │                           │                 │ activation_93[0][0]        │
├───────────────────────────────┼───────────────────────────┼─────────────────┼────────────────────────────┤
│ global_average_pooling2d      │ (None, 2048)              │               0 │ mixed10[0][0]              │
│ (GlobalAveragePooling2D)      │                           │                 │                            │
├───────────────────────────────┼───────────────────────────┼─────────────────┼────────────────────────────┤
│ dense (Dense)                 │ (None, 5)                 │          10,245 │ global_average_pooling2d[… │
└───────────────────────────────┴───────────────────────────┴─────────────────┴────────────────────────────┘
 Total params: 21,813,029 (83.21 MB)
 Trainable params: 21,778,597 (83.08 MB)
 Non-trainable params: 34,432 (134.50 KB)
Found 6495 images belonging to 5 classes.
Found 1701 images belonging to 5 classes.
Epoch 1/10
C:\Users\Benjamin\.pyenv\pyenv-win\versions\
…
To enable the following instructions: AVX2 AVX512F AVX512_VNNI FMA, in other operations, rebuild TensorFlow with the appropriate compiler flags.
Downloading data from https://storage.googleapis.com/tensorflow/keras-applications/resnet/resnet50_weights_tf_dim_ordering_tf_kernels_notop.h5
94765736/94765736 ━━━━━━━━━━━━━━━━━━━━ 11s 0us/step 
Model: "functional_1"
┏━━━━━━━━━━━━━━━━━━━━━━━━━━━━━━━┳━━━━━━━━━━━━━━━━━━━━━━━━━━━┳━━━━━━━━━━━━━━━━━┳━━━━━━━━━━━━━━━━━━━━━━━━━━━━┓
┃ Layer (type)                  ┃ Output Shape              ┃         Param # ┃ Connected to               ┃
┡━━━━━━━━━━━━━━━━━━━━━━━━━━━━━━━╇━━━━━━━━━━━━━━━━━━━━━━━━━━━╇━━━━━━━━━━━━━━━━━╇━━━━━━━━━━━━━━━━━━━━━━━━━━━━┩
│ input_layer (InputLayer)      │ (None, 128, 128, 3)       │               0 │ -                          │
├───────────────────────────────┼───────────────────────────┼─────────────────┼────────────────────────────┤
│ conv1_pad (ZeroPadding2D)     │ (None, 134, 134, 3)       │               0 │ input_layer[0][0]          │
├───────────────────────────────┼───────────────────────────┼─────────────────┼────────────────────────────┤
│ conv1_conv (Conv2D)           │ (None, 64, 64, 64)        │           9,472 │ conv1_pad[0][0]            │
├───────────────────────────────┼───────────────────────────┼─────────────────┼────────────────────────────┤
│ conv1_bn (BatchNormalization) │ (None, 64, 64, 64)        │             256 │ conv1_conv[0][0]           │
├───────────────────────────────┼───────────────────────────┼─────────────────┼────────────────────────────┤
│ conv1_relu (Activation)       │ (None, 64, 64, 64)        │               0 │ conv1_bn[0][0]             │
├───────────────────────────────┼───────────────────────────┼─────────────────┼────────────────────────────┤
│ pool1_pad (ZeroPadding2D)     │ (None, 66, 66, 64)        │               0 │ conv1_relu[0][0]           │
├───────────────────────────────┼───────────────────────────┼─────────────────┼────────────────────────────┤
│ pool1_pool (MaxPooling2D)     │ (None, 32, 32, 64)        │               0 │ pool1_pad[0][0]            │
├───────────────────────────────┼───────────────────────────┼─────────────────┼────────────────────────────┤
│ conv2_block1_1_conv (Conv2D)  │ (None, 32, 32, 64)        │           4,160 │ pool1_pool[0][0]           │
├───────────────────────────────┼───────────────────────────┼─────────────────┼────────────────────────────┤
│ conv2_block1_1_bn             │ (None, 32, 32, 64)        │             256 │ conv2_block1_1_conv[0][0]  │
│ (BatchNormalization)          │                           │                 │                            │
├───────────────────────────────┼───────────────────────────┼─────────────────┼────────────────────────────┤
│ conv2_block1_1_relu           │ (None, 32, 32, 64)        │               0 │ conv2_block1_1_bn[0][0]    │
│ (Activation)                  │                           │                 │                            │
├───────────────────────────────┼───────────────────────────┼─────────────────┼────────────────────────────┤
│ conv2_block1_2_conv (Conv2D)  │ (None, 32, 32, 64)        │          36,928 │ conv2_block1_1_relu[0][0]  │
├───────────────────────────────┼───────────────────────────┼─────────────────┼────────────────────────────┤
│ conv2_block1_2_bn             │ (None, 32, 32, 64)        │             256 │ conv2_block1_2_conv[0][0]  │
│ (BatchNormalization)          │                           │                 │                            │
├───────────────────────────────┼───────────────────────────┼─────────────────┼────────────────────────────┤
│ conv2_block1_2_relu           │ (None, 32, 32, 64)        │               0 │ conv2_block1_2_bn[0][0]    │
│ (Activation)                  │                           │                 │                            │
├───────────────────────────────┼───────────────────────────┼─────────────────┼────────────────────────────┤
│ conv2_block1_0_conv (Conv2D)  │ (None, 32, 32, 256)       │          16,640 │ pool1_pool[0][0]           │
├───────────────────────────────┼───────────────────────────┼─────────────────┼────────────────────────────┤
│ conv2_block1_3_conv (Conv2D)  │ (None, 32, 32, 256)       │          16,640 │ conv2_block1_2_relu[0][0]  │
├───────────────────────────────┼───────────────────────────┼─────────────────┼────────────────────────────┤
│ conv2_block1_0_bn             │ (None, 32, 32, 256)       │           1,024 │ conv2_block1_0_conv[0][0]  │
│ (BatchNormalization)          │                           │                 │                            │
├───────────────────────────────┼───────────────────────────┼─────────────────┼────────────────────────────┤
│ conv2_block1_3_bn             │ (None, 32, 32, 256)       │           1,024 │ conv2_block1_3_conv[0][0]  │
│ (BatchNormalization)          │                           │                 │                            │
├───────────────────────────────┼───────────────────────────┼─────────────────┼────────────────────────────┤
│ conv2_block1_add (Add)        │ (None, 32, 32, 256)       │               0 │ conv2_block1_0_bn[0][0],   │
│                               │                           │                 │ conv2_block1_3_bn[0][0]    │
├───────────────────────────────┼───────────────────────────┼─────────────────┼────────────────────────────┤
│ conv2_block1_out (Activation) │ (None, 32, 32, 256)       │               0 │ conv2_block1_add[0][0]     │
├───────────────────────────────┼───────────────────────────┼─────────────────┼────────────────────────────┤
│ conv2_block2_1_conv (Conv2D)  │ (None, 32, 32, 64)        │          16,448 │ conv2_block1_out[0][0]     │
├───────────────────────────────┼───────────────────────────┼─────────────────┼────────────────────────────┤
│ conv2_block2_1_bn             │ (None, 32, 32, 64)        │             256 │ conv2_block2_1_conv[0][0]  │
│ (BatchNormalization)          │                           │                 │                            │
├───────────────────────────────┼───────────────────────────┼─────────────────┼────────────────────────────┤
│ conv2_block2_1_relu           │ (None, 32, 32, 64)        │               0 │ conv2_block2_1_bn[0][0]    │
│ (Activation)                  │                           │                 │                            │
├───────────────────────────────┼───────────────────────────┼─────────────────┼────────────────────────────┤
│ conv2_block2_2_conv (Conv2D)  │ (None, 32, 32, 64)        │          36,928 │ conv2_block2_1_relu[0][0]  │
├───────────────────────────────┼───────────────────────────┼─────────────────┼────────────────────────────┤
│ conv2_block2_2_bn             │ (None, 32, 32, 64)        │             256 │ conv2_block2_2_conv[0][0]  │
│ (BatchNormalization)          │                           │                 │                            │
├───────────────────────────────┼───────────────────────────┼─────────────────┼────────────────────────────┤
│ conv2_block2_2_relu           │ (None, 32, 32, 64)        │               0 │ conv2_block2_2_bn[0][0]    │
│ (Activation)                  │                           │                 │                            │
├───────────────────────────────┼───────────────────────────┼─────────────────┼────────────────────────────┤
│ conv2_block2_3_conv (Conv2D)  │ (None, 32, 32, 256)       │          16,640 │ conv2_block2_2_relu[0][0]  │
├───────────────────────────────┼───────────────────────────┼─────────────────┼────────────────────────────┤
│ conv2_block2_3_bn             │ (None, 32, 32, 256)       │           1,024 │ conv2_block2_3_conv[0][0]  │
│ (BatchNormalization)          │                           │                 │                            │
├───────────────────────────────┼───────────────────────────┼─────────────────┼────────────────────────────┤
│ conv2_block2_add (Add)        │ (None, 32, 32, 256)       │               0 │ conv2_block1_out[0][0],    │
│                               │                           │                 │ conv2_block2_3_bn[0][0]    │
├───────────────────────────────┼───────────────────────────┼─────────────────┼────────────────────────────┤
│ conv2_block2_out (Activation) │ (None, 32, 32, 256)       │               0 │ conv2_block2_add[0][0]     │
├───────────────────────────────┼───────────────────────────┼─────────────────┼────────────────────────────┤
│ conv2_block3_1_conv (Conv2D)  │ (None, 32, 32, 64)        │          16,448 │ conv2_block2_out[0][0]     │
├───────────────────────────────┼───────────────────────────┼─────────────────┼────────────────────────────┤
│ conv2_block3_1_bn             │ (None, 32, 32, 64)        │             256 │ conv2_block3_1_conv[0][0]  │
│ (BatchNormalization)          │                           │                 │                            │
├───────────────────────────────┼───────────────────────────┼─────────────────┼────────────────────────────┤
│ conv2_block3_1_relu           │ (None, 32, 32, 64)        │               0 │ conv2_block3_1_bn[0][0]    │
│ (Activation)                  │                           │                 │                            │
├───────────────────────────────┼───────────────────────────┼─────────────────┼────────────────────────────┤
│ conv2_block3_2_conv (Conv2D)  │ (None, 32, 32, 64)        │          36,928 │ conv2_block3_1_relu[0][0]  │
├───────────────────────────────┼───────────────────────────┼─────────────────┼────────────────────────────┤
│ conv2_block3_2_bn             │ (None, 32, 32, 64)        │             256 │ conv2_block3_2_conv[0][0]  │
│ (BatchNormalization)          │                           │                 │                            │
├───────────────────────────────┼───────────────────────────┼─────────────────┼────────────────────────────┤
│ conv2_block3_2_relu           │ (None, 32, 32, 64)        │               0 │ conv2_block3_2_bn[0][0]    │
│ (Activation)                  │                           │                 │                            │
├───────────────────────────────┼───────────────────────────┼─────────────────┼────────────────────────────┤
│ conv2_block3_3_conv (Conv2D)  │ (None, 32, 32, 256)       │          16,640 │ conv2_block3_2_relu[0][0]  │
├───────────────────────────────┼───────────────────────────┼─────────────────┼────────────────────────────┤
│ conv2_block3_3_bn             │ (None, 32, 32, 256)       │           1,024 │ conv2_block3_3_conv[0][0]  │
│ (BatchNormalization)          │                           │                 │                            │
├───────────────────────────────┼───────────────────────────┼─────────────────┼────────────────────────────┤
│ conv2_block3_add (Add)        │ (None, 32, 32, 256)       │               0 │ conv2_block2_out[0][0],    │
│                               │                           │                 │ conv2_block3_3_bn[0][0]    │
├───────────────────────────────┼───────────────────────────┼─────────────────┼────────────────────────────┤
│ conv2_block3_out (Activation) │ (None, 32, 32, 256)       │               0 │ conv2_block3_add[0][0]     │
├───────────────────────────────┼───────────────────────────┼─────────────────┼────────────────────────────┤
│ conv3_block1_1_conv (Conv2D)  │ (None, 16, 16, 128)       │          32,896 │ conv2_block3_out[0][0]     │
├───────────────────────────────┼───────────────────────────┼─────────────────┼────────────────────────────┤
│ conv3_block1_1_bn             │ (None, 16, 16, 128)       │             512 │ conv3_block1_1_conv[0][0]  │
│ (BatchNormalization)          │                           │                 │                            │
├───────────────────────────────┼───────────────────────────┼─────────────────┼────────────────────────────┤
│ conv3_block1_1_relu           │ (None, 16, 16, 128)       │               0 │ conv3_block1_1_bn[0][0]    │
│ (Activation)                  │                           │                 │                            │
├───────────────────────────────┼───────────────────────────┼─────────────────┼────────────────────────────┤
│ conv3_block1_2_conv (Conv2D)  │ (None, 16, 16, 128)       │         147,584 │ conv3_block1_1_relu[0][0]  │
├───────────────────────────────┼───────────────────────────┼─────────────────┼────────────────────────────┤
│ conv3_block1_2_bn             │ (None, 16, 16, 128)       │             512 │ conv3_block1_2_conv[0][0]  │
│ (BatchNormalization)          │                           │                 │                            │
├───────────────────────────────┼───────────────────────────┼─────────────────┼────────────────────────────┤
│ conv3_block1_2_relu           │ (None, 16, 16, 128)       │               0 │ conv3_block1_2_bn[0][0]    │
│ (Activation)                  │                           │                 │                            │
├───────────────────────────────┼───────────────────────────┼─────────────────┼────────────────────────────┤
│ conv3_block1_0_conv (Conv2D)  │ (None, 16, 16, 512)       │         131,584 │ conv2_block3_out[0][0]     │
├───────────────────────────────┼───────────────────────────┼─────────────────┼────────────────────────────┤
│ conv3_block1_3_conv (Conv2D)  │ (None, 16, 16, 512)       │          66,048 │ conv3_block1_2_relu[0][0]  │
├───────────────────────────────┼───────────────────────────┼─────────────────┼────────────────────────────┤
│ conv3_block1_0_bn             │ (None, 16, 16, 512)       │           2,048 │ conv3_block1_0_conv[0][0]  │
│ (BatchNormalization)          │                           │                 │                            │
├───────────────────────────────┼───────────────────────────┼─────────────────┼────────────────────────────┤
│ conv3_block1_3_bn             │ (None, 16, 16, 512)       │           2,048 │ conv3_block1_3_conv[0][0]  │
│ (BatchNormalization)          │                           │                 │                            │
├───────────────────────────────┼───────────────────────────┼─────────────────┼────────────────────────────┤
│ conv3_block1_add (Add)        │ (None, 16, 16, 512)       │               0 │ conv3_block1_0_bn[0][0],   │
│                               │                           │                 │ conv3_block1_3_bn[0][0]    │
├───────────────────────────────┼───────────────────────────┼─────────────────┼────────────────────────────┤
│ conv3_block1_out (Activation) │ (None, 16, 16, 512)       │               0 │ conv3_block1_add[0][0]     │
├───────────────────────────────┼───────────────────────────┼─────────────────┼────────────────────────────┤
│ conv3_block2_1_conv (Conv2D)  │ (None, 16, 16, 128)       │          65,664 │ conv3_block1_out[0][0]     │
├───────────────────────────────┼───────────────────────────┼─────────────────┼────────────────────────────┤
│ conv3_block2_1_bn             │ (None, 16, 16, 128)       │             512 │ conv3_block2_1_conv[0][0]  │
│ (BatchNormalization)          │                           │                 │                            │
├───────────────────────────────┼───────────────────────────┼─────────────────┼────────────────────────────┤
│ conv3_block2_1_relu           │ (None, 16, 16, 128)       │               0 │ conv3_block2_1_bn[0][0]    │
│ (Activation)                  │                           │                 │                            │
├───────────────────────────────┼───────────────────────────┼─────────────────┼────────────────────────────┤
│ conv3_block2_2_conv (Conv2D)  │ (None, 16, 16, 128)       │         147,584 │ conv3_block2_1_relu[0][0]  │
├───────────────────────────────┼───────────────────────────┼─────────────────┼────────────────────────────┤
│ conv3_block2_2_bn             │ (None, 16, 16, 128)       │             512 │ conv3_block2_2_conv[0][0]  │
│ (BatchNormalization)          │                           │                 │                            │
├───────────────────────────────┼───────────────────────────┼─────────────────┼────────────────────────────┤
│ conv3_block2_2_relu           │ (None, 16, 16, 128)       │               0 │ conv3_block2_2_bn[0][0]    │
│ (Activation)                  │                           │                 │                            │
├───────────────────────────────┼───────────────────────────┼─────────────────┼────────────────────────────┤
│ conv3_block2_3_conv (Conv2D)  │ (None, 16, 16, 512)       │          66,048 │ conv3_block2_2_relu[0][0]  │
├───────────────────────────────┼───────────────────────────┼─────────────────┼────────────────────────────┤
│ conv3_block2_3_bn             │ (None, 16, 16, 512)       │           2,048 │ conv3_block2_3_conv[0][0]  │
│ (BatchNormalization)          │                           │                 │                            │
├───────────────────────────────┼───────────────────────────┼─────────────────┼────────────────────────────┤
│ conv3_block2_add (Add)        │ (None, 16, 16, 512)       │               0 │ conv3_block1_out[0][0],    │
│                               │                           │                 │ conv3_block2_3_bn[0][0]    │
├───────────────────────────────┼───────────────────────────┼─────────────────┼────────────────────────────┤
│ conv3_block2_out (Activation) │ (None, 16, 16, 512)       │               0 │ conv3_block2_add[0][0]     │
├───────────────────────────────┼───────────────────────────┼─────────────────┼────────────────────────────┤
│ conv3_block3_1_conv (Conv2D)  │ (None, 16, 16, 128)       │          65,664 │ conv3_block2_out[0][0]     │
├───────────────────────────────┼───────────────────────────┼─────────────────┼────────────────────────────┤
│ conv3_block3_1_bn             │ (None, 16, 16, 128)       │             512 │ conv3_block3_1_conv[0][0]  │
│ (BatchNormalization)          │                           │                 │                            │
├───────────────────────────────┼───────────────────────────┼─────────────────┼────────────────────────────┤
│ conv3_block3_1_relu           │ (None, 16, 16, 128)       │               0 │ conv3_block3_1_bn[0][0]    │
│ (Activation)                  │                           │                 │                            │
├───────────────────────────────┼───────────────────────────┼─────────────────┼────────────────────────────┤
│ conv3_block3_2_conv (Conv2D)  │ (None, 16, 16, 128)       │         147,584 │ conv3_block3_1_relu[0][0]  │
├───────────────────────────────┼───────────────────────────┼─────────────────┼────────────────────────────┤
│ conv3_block3_2_bn             │ (None, 16, 16, 128)       │             512 │ conv3_block3_2_conv[0][0]  │
│ (BatchNormalization)          │                           │                 │                            │
├───────────────────────────────┼───────────────────────────┼─────────────────┼────────────────────────────┤
│ conv3_block3_2_relu           │ (None, 16, 16, 128)       │               0 │ conv3_block3_2_bn[0][0]    │
│ (Activation)                  │                           │                 │                            │
├───────────────────────────────┼───────────────────────────┼─────────────────┼────────────────────────────┤
│ conv3_block3_3_conv (Conv2D)  │ (None, 16, 16, 512)       │          66,048 │ conv3_block3_2_relu[0][0]  │
├───────────────────────────────┼───────────────────────────┼─────────────────┼────────────────────────────┤
│ conv3_block3_3_bn             │ (None, 16, 16, 512)       │           2,048 │ conv3_block3_3_conv[0][0]  │
│ (BatchNormalization)          │                           │                 │                            │
├───────────────────────────────┼───────────────────────────┼─────────────────┼────────────────────────────┤
│ conv3_block3_add (Add)        │ (None, 16, 16, 512)       │               0 │ conv3_block2_out[0][0],    │
│                               │                           │                 │ conv3_block3_3_bn[0][0]    │
├───────────────────────────────┼───────────────────────────┼─────────────────┼────────────────────────────┤
│ conv3_block3_out (Activation) │ (None, 16, 16, 512)       │               0 │ conv3_block3_add[0][0]     │
├───────────────────────────────┼───────────────────────────┼─────────────────┼────────────────────────────┤
│ conv3_block4_1_conv (Conv2D)  │ (None, 16, 16, 128)       │          65,664 │ conv3_block3_out[0][0]     │
├───────────────────────────────┼───────────────────────────┼─────────────────┼────────────────────────────┤
│ conv3_block4_1_bn             │ (None, 16, 16, 128)       │             512 │ conv3_block4_1_conv[0][0]  │
│ (BatchNormalization)          │                           │                 │                            │
├───────────────────────────────┼───────────────────────────┼─────────────────┼────────────────────────────┤
│ conv3_block4_1_relu           │ (None, 16, 16, 128)       │               0 │ conv3_block4_1_bn[0][0]    │
│ (Activation)                  │                           │                 │                            │
├───────────────────────────────┼───────────────────────────┼─────────────────┼────────────────────────────┤
│ conv3_block4_2_conv (Conv2D)  │ (None, 16, 16, 128)       │         147,584 │ conv3_block4_1_relu[0][0]  │
├───────────────────────────────┼───────────────────────────┼─────────────────┼────────────────────────────┤
│ conv3_block4_2_bn             │ (None, 16, 16, 128)       │             512 │ conv3_block4_2_conv[0][0]  │
│ (BatchNormalization)          │                           │                 │                            │
├───────────────────────────────┼───────────────────────────┼─────────────────┼────────────────────────────┤
│ conv3_block4_2_relu           │ (None, 16, 16, 128)       │               0 │ conv3_block4_2_bn[0][0]    │
│ (Activation)                  │                           │                 │                            │
├───────────────────────────────┼───────────────────────────┼─────────────────┼────────────────────────────┤
│ conv3_block4_3_conv (Conv2D)  │ (None, 16, 16, 512)       │          66,048 │ conv3_block4_2_relu[0][0]  │
├───────────────────────────────┼───────────────────────────┼─────────────────┼────────────────────────────┤
│ conv3_block4_3_bn             │ (None, 16, 16, 512)       │           2,048 │ conv3_block4_3_conv[0][0]  │
│ (BatchNormalization)          │                           │                 │                            │
├───────────────────────────────┼───────────────────────────┼─────────────────┼────────────────────────────┤
│ conv3_block4_add (Add)        │ (None, 16, 16, 512)       │               0 │ conv3_block3_out[0][0],    │
│                               │                           │                 │ conv3_block4_3_bn[0][0]    │
├───────────────────────────────┼───────────────────────────┼─────────────────┼────────────────────────────┤
│ conv3_block4_out (Activation) │ (None, 16, 16, 512)       │               0 │ conv3_block4_add[0][0]     │
├───────────────────────────────┼───────────────────────────┼─────────────────┼────────────────────────────┤
│ conv4_block1_1_conv (Conv2D)  │ (None, 8, 8, 256)         │         131,328 │ conv3_block4_out[0][0]     │
├───────────────────────────────┼───────────────────────────┼─────────────────┼────────────────────────────┤
│ conv4_block1_1_bn             │ (None, 8, 8, 256)         │           1,024 │ conv4_block1_1_conv[0][0]  │
│ (BatchNormalization)          │                           │                 │                            │
├───────────────────────────────┼───────────────────────────┼─────────────────┼────────────────────────────┤
│ conv4_block1_1_relu           │ (None, 8, 8, 256)         │               0 │ conv4_block1_1_bn[0][0]    │
│ (Activation)                  │                           │                 │                            │
├───────────────────────────────┼───────────────────────────┼─────────────────┼────────────────────────────┤
│ conv4_block1_2_conv (Conv2D)  │ (None, 8, 8, 256)         │         590,080 │ conv4_block1_1_relu[0][0]  │
├───────────────────────────────┼───────────────────────────┼─────────────────┼────────────────────────────┤
│ conv4_block1_2_bn             │ (None, 8, 8, 256)         │           1,024 │ conv4_block1_2_conv[0][0]  │
│ (BatchNormalization)          │                           │                 │                            │
├───────────────────────────────┼───────────────────────────┼─────────────────┼────────────────────────────┤
│ conv4_block1_2_relu           │ (None, 8, 8, 256)         │               0 │ conv4_block1_2_bn[0][0]    │
│ (Activation)                  │                           │                 │                            │
├───────────────────────────────┼───────────────────────────┼─────────────────┼────────────────────────────┤
│ conv4_block1_0_conv (Conv2D)  │ (None, 8, 8, 1024)        │         525,312 │ conv3_block4_out[0][0]     │
├───────────────────────────────┼───────────────────────────┼─────────────────┼────────────────────────────┤
│ conv4_block1_3_conv (Conv2D)  │ (None, 8, 8, 1024)        │         263,168 │ conv4_block1_2_relu[0][0]  │
├───────────────────────────────┼───────────────────────────┼─────────────────┼────────────────────────────┤
│ conv4_block1_0_bn             │ (None, 8, 8, 1024)        │           4,096 │ conv4_block1_0_conv[0][0]  │
│ (BatchNormalization)          │                           │                 │                            │
├───────────────────────────────┼───────────────────────────┼─────────────────┼────────────────────────────┤
│ conv4_block1_3_bn             │ (None, 8, 8, 1024)        │           4,096 │ conv4_block1_3_conv[0][0]  │
│ (BatchNormalization)          │                           │                 │                            │
├───────────────────────────────┼───────────────────────────┼─────────────────┼────────────────────────────┤
│ conv4_block1_add (Add)        │ (None, 8, 8, 1024)        │               0 │ conv4_block1_0_bn[0][0],   │
│                               │                           │                 │ conv4_block1_3_bn[0][0]    │
├───────────────────────────────┼───────────────────────────┼─────────────────┼────────────────────────────┤
│ conv4_block1_out (Activation) │ (None, 8, 8, 1024)        │               0 │ conv4_block1_add[0][0]     │
├───────────────────────────────┼───────────────────────────┼─────────────────┼────────────────────────────┤
│ conv4_block2_1_conv (Conv2D)  │ (None, 8, 8, 256)         │         262,400 │ conv4_block1_out[0][0]     │
├───────────────────────────────┼───────────────────────────┼─────────────────┼────────────────────────────┤
│ conv4_block2_1_bn             │ (None, 8, 8, 256)         │           1,024 │ conv4_block2_1_conv[0][0]  │
│ (BatchNormalization)          │                           │                 │                            │
├───────────────────────────────┼───────────────────────────┼─────────────────┼────────────────────────────┤
│ conv4_block2_1_relu           │ (None, 8, 8, 256)         │               0 │ conv4_block2_1_bn[0][0]    │
│ (Activation)                  │                           │                 │                            │
├───────────────────────────────┼───────────────────────────┼─────────────────┼────────────────────────────┤
│ conv4_block2_2_conv (Conv2D)  │ (None, 8, 8, 256)         │         590,080 │ conv4_block2_1_relu[0][0]  │
├───────────────────────────────┼───────────────────────────┼─────────────────┼────────────────────────────┤
│ conv4_block2_2_bn             │ (None, 8, 8, 256)         │           1,024 │ conv4_block2_2_conv[0][0]  │
│ (BatchNormalization)          │                           │                 │                            │
├───────────────────────────────┼───────────────────────────┼─────────────────┼────────────────────────────┤
│ conv4_block2_2_relu           │ (None, 8, 8, 256)         │               0 │ conv4_block2_2_bn[0][0]    │
│ (Activation)                  │                           │                 │                            │
├───────────────────────────────┼───────────────────────────┼─────────────────┼────────────────────────────┤
│ conv4_block2_3_conv (Conv2D)  │ (None, 8, 8, 1024)        │         263,168 │ conv4_block2_2_relu[0][0]  │
├───────────────────────────────┼───────────────────────────┼─────────────────┼────────────────────────────┤
│ conv4_block2_3_bn             │ (None, 8, 8, 1024)        │           4,096 │ conv4_block2_3_conv[0][0]  │
│ (BatchNormalization)          │                           │                 │                            │
├───────────────────────────────┼───────────────────────────┼─────────────────┼────────────────────────────┤
│ conv4_block2_add (Add)        │ (None, 8, 8, 1024)        │               0 │ conv4_block1_out[0][0],    │
│                               │                           │                 │ conv4_block2_3_bn[0][0]    │
├───────────────────────────────┼───────────────────────────┼─────────────────┼────────────────────────────┤
│ conv4_block2_out (Activation) │ (None, 8, 8, 1024)        │               0 │ conv4_block2_add[0][0]     │
├───────────────────────────────┼───────────────────────────┼─────────────────┼────────────────────────────┤
│ conv4_block3_1_conv (Conv2D)  │ (None, 8, 8, 256)         │         262,400 │ conv4_block2_out[0][0]     │
├───────────────────────────────┼───────────────────────────┼─────────────────┼────────────────────────────┤
│ conv4_block3_1_bn             │ (None, 8, 8, 256)         │           1,024 │ conv4_block3_1_conv[0][0]  │
│ (BatchNormalization)          │                           │                 │                            │
├───────────────────────────────┼───────────────────────────┼─────────────────┼────────────────────────────┤
│ conv4_block3_1_relu           │ (None, 8, 8, 256)         │               0 │ conv4_block3_1_bn[0][0]    │
│ (Activation)                  │                           │                 │                            │
├───────────────────────────────┼───────────────────────────┼─────────────────┼────────────────────────────┤
│ conv4_block3_2_conv (Conv2D)  │ (None, 8, 8, 256)         │         590,080 │ conv4_block3_1_relu[0][0]  │
├───────────────────────────────┼───────────────────────────┼─────────────────┼────────────────────────────┤
│ conv4_block3_2_bn             │ (None, 8, 8, 256)         │           1,024 │ conv4_block3_2_conv[0][0]  │
│ (BatchNormalization)          │                           │                 │                            │
├───────────────────────────────┼───────────────────────────┼─────────────────┼────────────────────────────┤
│ conv4_block3_2_relu           │ (None, 8, 8, 256)         │               0 │ conv4_block3_2_bn[0][0]    │
│ (Activation)                  │                           │                 │                            │
├───────────────────────────────┼───────────────────────────┼─────────────────┼────────────────────────────┤
│ conv4_block3_3_conv (Conv2D)  │ (None, 8, 8, 1024)        │         263,168 │ conv4_block3_2_relu[0][0]  │
├───────────────────────────────┼───────────────────────────┼─────────────────┼────────────────────────────┤
│ conv4_block3_3_bn             │ (None, 8, 8, 1024)        │           4,096 │ conv4_block3_3_conv[0][0]  │
│ (BatchNormalization)          │                           │                 │                            │
├───────────────────────────────┼───────────────────────────┼─────────────────┼────────────────────────────┤
│ conv4_block3_add (Add)        │ (None, 8, 8, 1024)        │               0 │ conv4_block2_out[0][0],    │
│                               │                           │                 │ conv4_block3_3_bn[0][0]    │
├───────────────────────────────┼───────────────────────────┼─────────────────┼────────────────────────────┤
│ conv4_block3_out (Activation) │ (None, 8, 8, 1024)        │               0 │ conv4_block3_add[0][0]     │
├───────────────────────────────┼───────────────────────────┼─────────────────┼────────────────────────────┤
│ conv4_block4_1_conv (Conv2D)  │ (None, 8, 8, 256)         │         262,400 │ conv4_block3_out[0][0]     │
├───────────────────────────────┼───────────────────────────┼─────────────────┼────────────────────────────┤
│ conv4_block4_1_bn             │ (None, 8, 8, 256)         │           1,024 │ conv4_block4_1_conv[0][0]  │
│ (BatchNormalization)          │                           │                 │                            │
├───────────────────────────────┼───────────────────────────┼─────────────────┼────────────────────────────┤
│ conv4_block4_1_relu           │ (None, 8, 8, 256)         │               0 │ conv4_block4_1_bn[0][0]    │
│ (Activation)                  │                           │                 │                            │
├───────────────────────────────┼───────────────────────────┼─────────────────┼────────────────────────────┤
│ conv4_block4_2_conv (Conv2D)  │ (None, 8, 8, 256)         │         590,080 │ conv4_block4_1_relu[0][0]  │
├───────────────────────────────┼───────────────────────────┼─────────────────┼────────────────────────────┤
│ conv4_block4_2_bn             │ (None, 8, 8, 256)         │           1,024 │ conv4_block4_2_conv[0][0]  │
│ (BatchNormalization)          │                           │                 │                            │
├───────────────────────────────┼───────────────────────────┼─────────────────┼────────────────────────────┤
│ conv4_block4_2_relu           │ (None, 8, 8, 256)         │               0 │ conv4_block4_2_bn[0][0]    │
│ (Activation)                  │                           │                 │                            │
├───────────────────────────────┼───────────────────────────┼─────────────────┼────────────────────────────┤
│ conv4_block4_3_conv (Conv2D)  │ (None, 8, 8, 1024)        │         263,168 │ conv4_block4_2_relu[0][0]  │
├───────────────────────────────┼───────────────────────────┼─────────────────┼────────────────────────────┤
│ conv4_block4_3_bn             │ (None, 8, 8, 1024)        │           4,096 │ conv4_block4_3_conv[0][0]  │
│ (BatchNormalization)          │                           │                 │                            │
├───────────────────────────────┼───────────────────────────┼─────────────────┼────────────────────────────┤
│ conv4_block4_add (Add)        │ (None, 8, 8, 1024)        │               0 │ conv4_block3_out[0][0],    │
│                               │                           │                 │ conv4_block4_3_bn[0][0]    │
├───────────────────────────────┼───────────────────────────┼─────────────────┼────────────────────────────┤
│ conv4_block4_out (Activation) │ (None, 8, 8, 1024)        │               0 │ conv4_block4_add[0][0]     │
├───────────────────────────────┼───────────────────────────┼─────────────────┼────────────────────────────┤
│ conv4_block5_1_conv (Conv2D)  │ (None, 8, 8, 256)         │         262,400 │ conv4_block4_out[0][0]     │
├───────────────────────────────┼───────────────────────────┼─────────────────┼────────────────────────────┤
│ conv4_block5_1_bn             │ (None, 8, 8, 256)         │           1,024 │ conv4_block5_1_conv[0][0]  │
│ (BatchNormalization)          │                           │                 │                            │
├───────────────────────────────┼───────────────────────────┼─────────────────┼────────────────────────────┤
│ conv4_block5_1_relu           │ (None, 8, 8, 256)         │               0 │ conv4_block5_1_bn[0][0]    │
│ (Activation)                  │                           │                 │                            │
├───────────────────────────────┼───────────────────────────┼─────────────────┼────────────────────────────┤
│ conv4_block5_2_conv (Conv2D)  │ (None, 8, 8, 256)         │         590,080 │ conv4_block5_1_relu[0][0]  │
├───────────────────────────────┼───────────────────────────┼─────────────────┼────────────────────────────┤
│ conv4_block5_2_bn             │ (None, 8, 8, 256)         │           1,024 │ conv4_block5_2_conv[0][0]  │
│ (BatchNormalization)          │                           │                 │                            │
├───────────────────────────────┼───────────────────────────┼─────────────────┼────────────────────────────┤
│ conv4_block5_2_relu           │ (None, 8, 8, 256)         │               0 │ conv4_block5_2_bn[0][0]    │
│ (Activation)                  │                           │                 │                            │
├───────────────────────────────┼───────────────────────────┼─────────────────┼────────────────────────────┤
│ conv4_block5_3_conv (Conv2D)  │ (None, 8, 8, 1024)        │         263,168 │ conv4_block5_2_relu[0][0]  │
├───────────────────────────────┼───────────────────────────┼─────────────────┼────────────────────────────┤
│ conv4_block5_3_bn             │ (None, 8, 8, 1024)        │           4,096 │ conv4_block5_3_conv[0][0]  │
│ (BatchNormalization)          │                           │                 │                            │
├───────────────────────────────┼───────────────────────────┼─────────────────┼────────────────────────────┤
│ conv4_block5_add (Add)        │ (None, 8, 8, 1024)        │               0 │ conv4_block4_out[0][0],    │
│                               │                           │                 │ conv4_block5_3_bn[0][0]    │
├───────────────────────────────┼───────────────────────────┼─────────────────┼────────────────────────────┤
│ conv4_block5_out (Activation) │ (None, 8, 8, 1024)        │               0 │ conv4_block5_add[0][0]     │
├───────────────────────────────┼───────────────────────────┼─────────────────┼────────────────────────────┤
│ conv4_block6_1_conv (Conv2D)  │ (None, 8, 8, 256)         │         262,400 │ conv4_block5_out[0][0]     │
├───────────────────────────────┼───────────────────────────┼─────────────────┼────────────────────────────┤
│ conv4_block6_1_bn             │ (None, 8, 8, 256)         │           1,024 │ conv4_block6_1_conv[0][0]  │
│ (BatchNormalization)          │                           │                 │                            │
├───────────────────────────────┼───────────────────────────┼─────────────────┼────────────────────────────┤
│ conv4_block6_1_relu           │ (None, 8, 8, 256)         │               0 │ conv4_block6_1_bn[0][0]    │
│ (Activation)                  │                           │                 │                            │
├───────────────────────────────┼───────────────────────────┼─────────────────┼────────────────────────────┤
│ conv4_block6_2_conv (Conv2D)  │ (None, 8, 8, 256)         │         590,080 │ conv4_block6_1_relu[0][0]  │
├───────────────────────────────┼───────────────────────────┼─────────────────┼────────────────────────────┤
│ conv4_block6_2_bn             │ (None, 8, 8, 256)         │           1,024 │ conv4_block6_2_conv[0][0]  │
│ (BatchNormalization)          │                           │                 │                            │
├───────────────────────────────┼───────────────────────────┼─────────────────┼────────────────────────────┤
│ conv4_block6_2_relu           │ (None, 8, 8, 256)         │               0 │ conv4_block6_2_bn[0][0]    │
│ (Activation)                  │                           │                 │                            │
├───────────────────────────────┼───────────────────────────┼─────────────────┼────────────────────────────┤
│ conv4_block6_3_conv (Conv2D)  │ (None, 8, 8, 1024)        │         263,168 │ conv4_block6_2_relu[0][0]  │
├───────────────────────────────┼───────────────────────────┼─────────────────┼────────────────────────────┤
│ conv4_block6_3_bn             │ (None, 8, 8, 1024)        │           4,096 │ conv4_block6_3_conv[0][0]  │
│ (BatchNormalization)          │                           │                 │                            │
├───────────────────────────────┼───────────────────────────┼─────────────────┼────────────────────────────┤
│ conv4_block6_add (Add)        │ (None, 8, 8, 1024)        │               0 │ conv4_block5_out[0][0],    │
│                               │                           │                 │ conv4_block6_3_bn[0][0]    │
├───────────────────────────────┼───────────────────────────┼─────────────────┼────────────────────────────┤
│ conv4_block6_out (Activation) │ (None, 8, 8, 1024)        │               0 │ conv4_block6_add[0][0]     │
├───────────────────────────────┼───────────────────────────┼─────────────────┼────────────────────────────┤
│ conv5_block1_1_conv (Conv2D)  │ (None, 4, 4, 512)         │         524,800 │ conv4_block6_out[0][0]     │
├───────────────────────────────┼───────────────────────────┼─────────────────┼────────────────────────────┤
│ conv5_block1_1_bn             │ (None, 4, 4, 512)         │           2,048 │ conv5_block1_1_conv[0][0]  │
│ (BatchNormalization)          │                           │                 │                            │
├───────────────────────────────┼───────────────────────────┼─────────────────┼────────────────────────────┤
│ conv5_block1_1_relu           │ (None, 4, 4, 512)         │               0 │ conv5_block1_1_bn[0][0]    │
│ (Activation)                  │                           │                 │                            │
├───────────────────────────────┼───────────────────────────┼─────────────────┼────────────────────────────┤
│ conv5_block1_2_conv (Conv2D)  │ (None, 4, 4, 512)         │       2,359,808 │ conv5_block1_1_relu[0][0]  │
├───────────────────────────────┼───────────────────────────┼─────────────────┼────────────────────────────┤
│ conv5_block1_2_bn             │ (None, 4, 4, 512)         │           2,048 │ conv5_block1_2_conv[0][0]  │
│ (BatchNormalization)          │                           │                 │                            │
├───────────────────────────────┼───────────────────────────┼─────────────────┼────────────────────────────┤
│ conv5_block1_2_relu           │ (None, 4, 4, 512)         │               0 │ conv5_block1_2_bn[0][0]    │
│ (Activation)                  │                           │                 │                            │
├───────────────────────────────┼───────────────────────────┼─────────────────┼────────────────────────────┤
│ conv5_block1_0_conv (Conv2D)  │ (None, 4, 4, 2048)        │       2,099,200 │ conv4_block6_out[0][0]     │
├───────────────────────────────┼───────────────────────────┼─────────────────┼────────────────────────────┤
│ conv5_block1_3_conv (Conv2D)  │ (None, 4, 4, 2048)        │       1,050,624 │ conv5_block1_2_relu[0][0]  │
├───────────────────────────────┼───────────────────────────┼─────────────────┼────────────────────────────┤
│ conv5_block1_0_bn             │ (None, 4, 4, 2048)        │           8,192 │ conv5_block1_0_conv[0][0]  │
│ (BatchNormalization)          │                           │                 │                            │
├───────────────────────────────┼───────────────────────────┼─────────────────┼────────────────────────────┤
│ conv5_block1_3_bn             │ (None, 4, 4, 2048)        │           8,192 │ conv5_block1_3_conv[0][0]  │
│ (BatchNormalization)          │                           │                 │                            │
├───────────────────────────────┼───────────────────────────┼─────────────────┼────────────────────────────┤
│ conv5_block1_add (Add)        │ (None, 4, 4, 2048)        │               0 │ conv5_block1_0_bn[0][0],   │
│                               │                           │                 │ conv5_block1_3_bn[0][0]    │
├───────────────────────────────┼───────────────────────────┼─────────────────┼────────────────────────────┤
│ conv5_block1_out (Activation) │ (None, 4, 4, 2048)        │               0 │ conv5_block1_add[0][0]     │
├───────────────────────────────┼───────────────────────────┼─────────────────┼────────────────────────────┤
│ conv5_block2_1_conv (Conv2D)  │ (None, 4, 4, 512)         │       1,049,088 │ conv5_block1_out[0][0]     │
├───────────────────────────────┼───────────────────────────┼─────────────────┼────────────────────────────┤
│ conv5_block2_1_bn             │ (None, 4, 4, 512)         │           2,048 │ conv5_block2_1_conv[0][0]  │
│ (BatchNormalization)          │                           │                 │                            │
├───────────────────────────────┼───────────────────────────┼─────────────────┼────────────────────────────┤
│ conv5_block2_1_relu           │ (None, 4, 4, 512)         │               0 │ conv5_block2_1_bn[0][0]    │
│ (Activation)                  │                           │                 │                            │
├───────────────────────────────┼───────────────────────────┼─────────────────┼────────────────────────────┤
│ conv5_block2_2_conv (Conv2D)  │ (None, 4, 4, 512)         │       2,359,808 │ conv5_block2_1_relu[0][0]  │
├───────────────────────────────┼───────────────────────────┼─────────────────┼────────────────────────────┤
│ conv5_block2_2_bn             │ (None, 4, 4, 512)         │           2,048 │ conv5_block2_2_conv[0][0]  │
│ (BatchNormalization)          │                           │                 │                            │
├───────────────────────────────┼───────────────────────────┼─────────────────┼────────────────────────────┤
│ conv5_block2_2_relu           │ (None, 4, 4, 512)         │               0 │ conv5_block2_2_bn[0][0]    │
│ (Activation)                  │                           │                 │                            │
├───────────────────────────────┼───────────────────────────┼─────────────────┼────────────────────────────┤
│ conv5_block2_3_conv (Conv2D)  │ (None, 4, 4, 2048)        │       1,050,624 │ conv5_block2_2_relu[0][0]  │
├───────────────────────────────┼───────────────────────────┼─────────────────┼────────────────────────────┤
│ conv5_block2_3_bn             │ (None, 4, 4, 2048)        │           8,192 │ conv5_block2_3_conv[0][0]  │
│ (BatchNormalization)          │                           │                 │                            │
├───────────────────────────────┼───────────────────────────┼─────────────────┼────────────────────────────┤
│ conv5_block2_add (Add)        │ (None, 4, 4, 2048)        │               0 │ conv5_block1_out[0][0],    │
│                               │                           │                 │ conv5_block2_3_bn[0][0]    │
├───────────────────────────────┼───────────────────────────┼─────────────────┼────────────────────────────┤
│ conv5_block2_out (Activation) │ (None, 4, 4, 2048)        │               0 │ conv5_block2_add[0][0]     │
├───────────────────────────────┼───────────────────────────┼─────────────────┼────────────────────────────┤
│ conv5_block3_1_conv (Conv2D)  │ (None, 4, 4, 512)         │       1,049,088 │ conv5_block2_out[0][0]     │
├───────────────────────────────┼───────────────────────────┼─────────────────┼────────────────────────────┤
│ conv5_block3_1_bn             │ (None, 4, 4, 512)         │           2,048 │ conv5_block3_1_conv[0][0]  │
│ (BatchNormalization)          │                           │                 │                            │
├───────────────────────────────┼───────────────────────────┼─────────────────┼────────────────────────────┤
│ conv5_block3_1_relu           │ (None, 4, 4, 512)         │               0 │ conv5_block3_1_bn[0][0]    │
│ (Activation)                  │                           │                 │                            │
├───────────────────────────────┼───────────────────────────┼─────────────────┼────────────────────────────┤
│ conv5_block3_2_conv (Conv2D)  │ (None, 4, 4, 512)         │       2,359,808 │ conv5_block3_1_relu[0][0]  │
├───────────────────────────────┼───────────────────────────┼─────────────────┼────────────────────────────┤
│ conv5_block3_2_bn             │ (None, 4, 4, 512)         │           2,048 │ conv5_block3_2_conv[0][0]  │
│ (BatchNormalization)          │                           │                 │                            │
├───────────────────────────────┼───────────────────────────┼─────────────────┼────────────────────────────┤
│ conv5_block3_2_relu           │ (None, 4, 4, 512)         │               0 │ conv5_block3_2_bn[0][0]    │
│ (Activation)                  │                           │                 │                            │
├───────────────────────────────┼───────────────────────────┼─────────────────┼────────────────────────────┤
│ conv5_block3_3_conv (Conv2D)  │ (None, 4, 4, 2048)        │       1,050,624 │ conv5_block3_2_relu[0][0]  │
├───────────────────────────────┼───────────────────────────┼─────────────────┼────────────────────────────┤
│ conv5_block3_3_bn             │ (None, 4, 4, 2048)        │           8,192 │ conv5_block3_3_conv[0][0]  │
│ (BatchNormalization)          │                           │                 │                            │
├───────────────────────────────┼───────────────────────────┼─────────────────┼────────────────────────────┤
│ conv5_block3_add (Add)        │ (None, 4, 4, 2048)        │               0 │ conv5_block2_out[0][0],    │
│                               │                           │                 │ conv5_block3_3_bn[0][0]    │
├───────────────────────────────┼───────────────────────────┼─────────────────┼────────────────────────────┤
│ conv5_block3_out (Activation) │ (None, 4, 4, 2048)        │               0 │ conv5_block3_add[0][0]     │
├───────────────────────────────┼───────────────────────────┼─────────────────┼────────────────────────────┤
│ global_average_pooling2d      │ (None, 2048)              │               0 │ conv5_block3_out[0][0]     │
│ (GlobalAveragePooling2D)      │                           │                 │                            │
├───────────────────────────────┼───────────────────────────┼─────────────────┼────────────────────────────┤
│ dense (Dense)                 │ (None, 5)                 │          10,245 │ global_average_pooling2d[… │
└───────────────────────────────┴───────────────────────────┴─────────────────┴────────────────────────────┘
 Total params: 23,597,957 (90.02 MB)
 Trainable params: 23,544,837 (89.82 MB)
 Non-trainable params: 53,120 (207.50 KB)
Found 6495 images belonging to 5 classes.
Found 1701 images belonging to 5 classes.
Epoch 1/10
C:\Users\Benjamin\.pyenv\pyenv-win\versions\
…
